models/Adam_batch_size=16_epoch=100.pt (torch_old, 260165 bytes, 10 tensors)

lstm.weight_ih_l0 f4 [256, 1]
00000000: 0175 023f 6540 9d3d d726 d63c 7e9c aabd
00000010: fb4a d4bc 944d 17be f8d0 02be 8849 9a3d
00000020: 32b7 9cbc dd09 d03e 8592 2cbd 283c 993c
00000030: 1fc6 303d e246 353d b573 8d3e 8063 a33d
00000040: 3531 b13e 4870 ca3d d07c db3c 14a0 c23d
00000050: fba1 e9bc 6894 d13c 45a9 1e3d c8de aa3e
00000060: bb85 833e 0be1 4d3d 10f8 debd d3ec 26bd
00000070: 6b31 a23e d877 94bd 286e bb3d 2fe0 0f3f
00000080: 4287 ffbd 67c9 90bd 46a1 253d d660 8d3d
00000090: be89 fabd 1e2e 653c 6276 a13d 31b1 01bd
000000a0: 5410 9abc 587a da3d f9a2 013f 6f61 8fbd
000000b0: 165c 20bd f3bb cbbc 0b71 8d3d a48f a7bd
000000c0: 0f5f ac3e 21e4 013f b781 0cbd 16d1 853d
000000d0: 3c12 a33d 89e7 7fbd 7094 9f3d 071f 2cbe
000000e0: 6964 14be 05c1 e23e ff61 d3bd 3baf 163c
000000f0: fcc6 1bbd cce4 0f3e da82 d53c 67b9 03be
00000100: e302 033d 79c2 9b3d 8a54 693d fce1 753d
00000110: 3f31 1c3e 7f7d 6b3e 3ec1 9dbd faa9 8a3d
00000120: 6e8e 173d 61f8 313d d8f3 adbd f7d5 133e
00000130: 52f3 593d e599 97bd 7077 463e 0baa 9c3d
00000140: 2924 70bd 2313 49bd 6b07 5cbd be4b aa3d
00000150: 5a71 d13d 9951 033d 0bee 023e aa4d 633d
00000160: f42c 043e bd02 193e d88d 223e 589c 1ebd
00000170: b963 273e 038b 0b3e 5c7a 103e d3cd 763d
00000180: dbf1 543e 2c2d f93c 0804 583d 0eb8 223b
00000190: 6628 4ebd f392 013d bab4 4b3d 16e0 d93d
000001a0: dfeb c43d e91e 1fbd e49a 8e3d 8fdb 483e
000001b0: 14ef eabd d57d 373e dbae 383d cae3 d43d
000001c0: 48e3 d73c be06 893d 7dfb 08bd 184b ccbc
000001d0: 251b 063d 807c c23d a942 ce3c 26a9 053d
000001e0: a2ac d73e 225d 673d d038 693e d3b8 fd3c
000001f0: dec9 633e ad4a aa3c 5630 983d f382 49bd
00000200: 6ad3 003f c621 12bd 7d27 eebc b24a d93d
00000210: 09a2 04be cb01 b83e 212f 0fbd 2254 9bbd
00000220: d44d 293e b73a 623e a5c7 1ebe 71b4 95be
00000230: 3ec8 76bd 12e5 d2bd c38b 97be 548d 2dbd
00000240: 768a 2abe f97f 293e 44d5 04be a549 113e
00000250: cc31 b13e 3201 d6bc 84b7 b4bd 87e6 5e3d
00000260: 6cfc 03bf 2ecb df3c d4e4 f5bd 37ae aebd
00000270: ba40 ef3e d1ae fcbd 8e33 62bd 00e8 0abf
00000280: 0265 4bbe 55c5 2dbe 4be4 603e 0fcb 8d3d
00000290: 09d4 84bc e003 673d 54d1 803d f58e 3e3d
000002a0: b0a8 be3d b1ac 223d ac71 073e 2d7e 28be
000002b0: c5cc 99bd ed3f 55bd 7f65 163d ae35 c0bd
000002c0: e29b ac3e 34c8 9c3e e7d3 b2bd 34fe 35be
000002d0: d1c5 14be 6588 47be 26f3 f5bd b146 3abe
000002e0: 30cd c33e 160f cebe db8d c4be 0156 e9bd
000002f0: d471 64be b54b 4dbe c649 e03c 4e1c b83b
00000300: eb19 443d a5c5 35bd 2a1e 67bd 9f51 de3d
00000310: 9331 3a3d 1f56 693e b403 bb3d 3ff3 45bd
00000320: a764 1bbe a6a2 353d 78e1 eb3d 5ebb 903d
00000330: 7a93 a2bd 0f9f 7c3c 9535 9f3d b3c1 4cbd
00000340: 878c 973e b281 29bd e80d 373e eccd e7bd
00000350: e726 b43d edbb 593d 653b 083e a43f 59bd
00000360: d0ae 0d3e eddb 0f3d 8b10 013e 30fc 7a3e
00000370: c5db 63bd 7d13 933d ac3a b6bd e608 113e
00000380: f6f0 153d 3eb6 253e 677e 46bd 1a8f ddbd
00000390: d005 a13d aacc 3a3e b61b 58bd 7e05 a73d
000003a0: d9f4 ddbd c81b 3dbd 3bdd 903e 2b07 693e
000003b0: 5f3d e03d 8f4c e13d f588 3cbd 1586 993d
000003c0: f860 db3c 6708 37bd 3fe6 883e 04c4 72bd
000003d0: a12e 37bd 1ae2 dc3d 69ee 34bd f7d5 783e
000003e0: 6107 6d3e 1ae8 653e fee1 293e 9117 073e
000003f0: de6a cfbd 7d17 ac3d 2f1d 31bd 1c1e 3a3d
0.50959784 0.07678298 0.026141567 -0.0833063 -0.02591466 -0.14775687 -0.12775028 0.07533556
-0.019130323 0.40632525 -0.04213192 0.018705443 0.043157693 0.044257052 0.2762734 0.079779625
0.34607854 0.09884697 0.026792914 0.09503189 -0.028519621 0.02558346 0.038735647 0.33373094
0.25687966 0.050263446 -0.10887158 -0.040753197 0.31678328 -0.07249421 0.0915187 0.5620145
-0.1247697 -0.070696644 0.040437005 0.069032356 -0.122333035 0.013988046 0.07883908 -0.031663124
-0.018806614 0.106678665 0.506393 -0.07001006 -0.03915032 -0.024869895 0.06906327 -0.08181694
0.33666274 0.5073872 -0.034303393 0.065340206 0.07962462 -0.06247667 0.07791984 -0.16808711
-0.14491428 0.44287887 -0.10321426 0.009197052 -0.038031563 0.14052123 0.026063371 -0.12863694
0.031985175 0.07605452 0.05696539 0.06002997 0.15253161 0.22997092 -0.07702874 0.06770702
0.037001066 0.043449763 -0.08493775 0.1443709 0.053210564 -0.074024 0.193815 0.076496206
-0.058628235 -0.049090516 -0.05371801 0.08315228 0.10226698 0.03206024 0.12786119 0.055493988
0.12907773 0.14942451 0.15874422 -0.03872332 0.16346635 0.13627248 0.14109176 0.060254883
0.20795386 0.030417047 0.05273822 0.0024828943 -0.050331496 0.031634282 0.0497329 0.10638444
0.09615301 -0.038847838 0.06963137 0.19615005 -0.11471382 0.17919095 0.04508863 0.1039501
0.026353493 0.06690739 -0.033442963 -0.024938151 0.03274073 0.09496403 0.02517827 0.032632016
0.42123896 0.056485303 0.22775578 0.03097192 0.22244975 0.020787561 0.07431094 -0.04919715
0.5032259 -0.03567674 -0.029071564 0.1060995 -0.12952437 0.35938868 -0.034957055 -0.075844064
0.16533595 0.2209271 -0.15505846 -0.29239228 -0.06024956 -0.10297598 -0.29598817 -0.04237111
-0.16654381 0.16552724 -0.1297198 0.1418825 0.34608305 -0.026123617 -0.08824065 0.054419067
-0.5155704 0.027318563 -0.12006536 -0.085293226 0.4672907 -0.12338031 -0.055224948 -0.54260254
-0.1986275 -0.16969807 0.21962087 0.06923496 -0.016214387 0.05640018 0.06289926 0.046523053
0.09309518 0.039715473 0.13226956 -0.16454382 -0.0750976 -0.052062918 0.036717888 -0.093852386
0.3371268 0.30621493 -0.087318234 -0.17772752 -0.14528586 -0.19485624 -0.120092675 -0.18191029
0.38242483 -0.40245885 -0.38389477 -0.11393357 -0.22309047 -0.20048411 0.027378928 0.0056186086
0.04787628 -0.04437794 -0.05642525 0.10855412 0.045457434 0.22786759 0.09131566 -0.04832768
-0.15175115 0.044344567 0.11517614 0.070669875 -0.07938285 0.015418782 0.07773892 -0.049989413
0.295994 -0.041383453 0.17876399 -0.11318573 0.087964825 0.053157736 0.13303907 -0.053039208
0.13836217 0.035121847 0.12603967 0.24510264 -0.05562951 0.071814515 -0.088979095 0.1416355
0.03660675 0.16182801 -0.04846039 -0.1081831 0.07862437 0.18242136 -0.052760802 0.081553444
-0.108377166 -0.046169072 0.28293785 0.2275664 0.109492056 0.110009305 -0.04602905 0.07496277
0.026779637 -0.044685747 0.26738164 -0.059268966 -0.044722203 0.10785313 -0.04417268 0.24300371
0.23147346 0.22451821 0.16590115 0.13192584 -0.10127805 0.084029175 -0.043240722 0.04543887

lstm.weight_hh_l0 f4 [256, 64]
00000000: c4fc c03e 07c5 dabe e083 d3be 78db 0c3e
00000010: 0bcc 623c 2efb 4a3d 4e7e a6bd 20e8 1bbf
00000020: a590 de3d 4a30 c4bc 33f4 a8be 1250 103e
00000030: acb3 86bd 4f09 6c3b e551 acbe cd56 e2be
00000040: 12c0 87bc 608b de3e 0b4c 623d b985 c3bb
00000050: ec9a b3bd e437 043e 4b92 e93d d902 4a3e
00000060: 7c1f b5be 6dff 513e 53be 74bd 389a 81bf
00000070: 989e e03e 80b6 70bc 2398 99bd 568e 8dbe
00000080: 3fcd 123e 66bb 4abe 2438 163f 317d 293d
00000090: 6425 95be 369c 703e 33b1 c23e 3487 16bd
000000a0: 43cc b4bb 66a3 883e 1474 76be c01f 88bd
000000b0: 4663 05bf 8439 9abd 05cf 023f 6d11 ffbb
000000c0: 9db5 a9bb ca00 f63e b2ff 3bbf 0fdf 13be
000000d0: ed02 28bf a6e1 cfbe 3aca 07bf efea 943d
000000e0: 7c30 993e 20a1 913e 623c 253e 247d bfbd
000000f0: 1caf 7dbd 66e7 613d 9338 e83e e951 e23e
00000100: 5431 bc3d a2b4 69be 5d90 10be 7070 0e3e
00000110: 0224 79bd 02aa 393e aaf2 fe3c a6dd 18be
00000120: dbe0 373e 2cff e13c 059c 9fbd d31b 0dbe
00000130: 25cd 32bd 6c79 73be 7832 2abe 44f3 5cbe
00000140: 9046 e3bd 37b4 143e bfaa f6bd 0ebd 5a3e
00000150: 1aad 603e 6bca e3bc 1ee4 76be 9992 513e
00000160: c3c6 b7bd 98bd 3c3e 5714 073d 656b acbc
00000170: 34d9 8e3e 318c 6abc ae27 aebd dd0a b9bd
00000180: d17b 4bbe f5b5 4abe 596c 7a3e c5da ee3d
00000190: 74b6 39be f337 c73d 06b2 053e 4b64 4e3e
000001a0: bf87 7b3e a715 543e 4186 203e 07c6 c2bd
000001b0: e1de 0ebe 0db1 16be 318f 333e 59ce 7f3d
000001c0: c175 493e 949c 9a3e 2d6c 7dbe 4ab7 7dbe
000001d0: c9dd 9abe ec8c 3abe 2afd 13be 2eaa 9f3c
000001e0: fccb 8c3c 2765 2bbe 2bc6 91bd 9c47 42be
000001f0: 4d16 0bbe be10 88be 5fcc 513e 8562 35bd
00000200: ee9c 063e 023a c5bd 351b 3ebc 2094 1e3e
00000210: 65b9 e0bd 36fe 1b3e 5cd5 4bbd 6f82 be3c
00000220: 20f5 183e a4f8 793d 678b 073d 8015 92bd
00000230: 4cb6 843c 6ab0 17bc fabe 92bc 8111 49be
00000240: dd42 5ebe f0b8 d73d 9525 1abd 13c6 cc3d
00000250: 0720 1f3e edda 58be e94a 58bd 74f2 113e
00000260: f0e6 68bd efe5 813c 20f6 d5bd 7ef8 dabd
00000270: d875 9abc 9e8a 56be 10dd 803d 524b 22bd
00000280: 6e58 583c c690 60bd fced f23d 529c 1f3d
00000290: 5f5f 173d 4b1f 143e 1b54 d93d 7794 7f3e
000002a0: d8cf d13c 5f6e 333e 321f c63c 3fe3 30be
000002b0: 1fd7 e6bd 4f26 6ebe c285 a83c 2683 9ebd
000002c0: 7dd3 833d 5fad 0f3e 2c9f 31be 1e21 09be
000002d0: d3cd 29be 17e2 65bc cc2d 383d 0db9 20be
000002e0: ffeb dc3d 321c a33c c9a2 1dbe 72e3 2fbe
000002f0: e23a 89bd f4c2 3ebc f9a3 4e3d f916 1ebc
00000300: 01a2 7e3e 9243 71be d805 67be 60f0 283e
00000310: 7a9d a4be f1aa eb3d 1678 113d 3417 40be
00000320: e6fd 8a3d 5c42 163e 8ba6 f5bc 5132 12be
00000330: f53e 44bd 09cf 4dbe d12e 15be b23b 4cbe
00000340: dd57 48be 5da8 733d 70ac 00be 56e5 38bd
00000350: 9080 cf3d b10d f5bd 6657 a3be d4a7 4e3d
00000360: 7c4d 9fbe b28f 733e 5d1b 20be 870c a13d
00000370: 15d0 c93b 1da4 a5bd 7223 4cbe 3ed3 1bbe
00000380: 042b 75be 9461 babd 038a dd3d 7fe2 4fbd
00000390: caa9 cbb9 8622 833e 33e8 6d3e ed01 1d3e
000003a0: f8ae 343e 37b0 f63d 04fd 883e c6c9 ad3c
000003b0: c2e4 7abd 73ef 87bd a899 5839 f204 85be
000003c0: 753b 1c3e 1cb2 4a3e e68c efbc 1015 f2bd
000003d0: a76a d3bd e1ed 49be 079c 36be d4b8 0f3e
000003e0: 38a0 31be 6dcd 24be 6507 0c3d 2ade 12be
000003f0: 46da 74be 5434 8bbe a5d4 7a3d 8335 953d
0.37692845 -0.42728445 -0.4131155 0.13755596 0.013842593 0.04955595 -0.081295595 -0.6090107
0.108674325 -0.023948807 -0.3299881 0.14093044 -0.065772384 0.003601629 -0.3365623 -0.4420685
-0.016571078 0.4346571 0.0552483 -0.0059668687 -0.087697834 0.12911946 0.11404856 0.19727649
-0.35375583 0.20507593 -0.05975182 -1.0125189 0.43870997 -0.014691949 -0.07499721 -0.27647656
0.14336108 -0.1979805 0.58679414 0.041379157 -0.2913009 0.2349709 0.38025817 -0.036750033
-0.005517514 0.26687163 -0.24067718 -0.06646681 -0.52104604 -0.075305015 0.51097137 -0.0077840597
-0.0051791207 0.48047477 -0.73437035 -0.14440559 -0.65629464 -0.40601844 -0.5304295 0.072713725
0.29919803 0.2844324 0.16136315 -0.093500406 -0.061934575 0.05515232 0.45355663 0.44203117
0.09189096 -0.22822812 -0.1411757 0.13910079 -0.060825355 0.18131259 0.03112157 -0.14928302
0.1795687 0.027587496 -0.0779343 -0.13780145 -0.043652672 -0.23776788 -0.16620815 -0.21577173
-0.11097443 0.14521872 -0.12044286 0.21361181 0.21941033 -0.027806481 -0.24110457 0.20466079
-0.08973458 0.184317 0.032978382 -0.021047303 0.27900088 -0.014315651 -0.08503662 -0.09035275
-0.19871451 -0.19795974 0.24455394 0.11662821 -0.18136007 0.09727468 0.13056192 0.20155446
0.24563502 0.20711385 0.15676214 -0.09510427 -0.13952209 -0.14715977 0.17535092 0.062452648
0.19673826 0.30197585 -0.24748297 -0.2477695 -0.30247334 -0.1821782 -0.14452043 0.019490328
0.017187111 -0.16737805 -0.07117876 -0.1897263 -0.13582726 -0.26575273 0.20488118 -0.04428341
0.13145801 -0.09630205 -0.011603166 0.15486193 -0.10972861 0.15233693 -0.049764022 0.023255555
0.14937258 0.061028138 0.03309193 -0.07133007 0.016200207 -0.009258369 -0.01791333 -0.19635583
-0.21705194 0.10533321 -0.037633497 0.09998717 0.15539561 -0.21177264 -0.052805815 0.14252645
-0.056860864 0.015856711 -0.10447335 -0.106919274 -0.01885502 -0.20951316 0.06292164 -0.039622612
0.013204677 -0.054825567 0.11861798 0.038967438 0.036956187 0.14465062 0.10611745 0.24958979
0.025611803 0.17522572 0.024184797 -0.17274188 -0.112715 -0.23256801 0.020571593 -0.07739858
0.064368226 0.1403098 -0.17345876 -0.1339154 -0.16582422 -0.014030955 0.04496555 -0.15695591
0.107872 0.019910906 -0.15394129 -0.17176607 -0.06700684 -0.01164316 0.050449345 -0.009649032
0.24866487 -0.23560932 -0.22560823 0.16497946 -0.32151395 0.11507214 0.035514913 -0.18758851
0.067867085 0.14673752 -0.02998664 -0.14277007 -0.047911603 -0.20098509 -0.1456864 -0.19944647
-0.19564767 0.059486736 -0.1256578 -0.045140587 0.10131943 -0.11965502 -0.31902617 0.050453022
-0.31113803 0.23785284 -0.15635438 0.078637175 0.0061588385 -0.08087943 -0.19935396 -0.15217301
-0.2394219 -0.09100643 0.10817339 -0.050753113 -0.0003884568 0.25612277 0.23233108 0.15332766
0.1764487 0.12045329 0.26755536 0.021214377 -0.061253317 -0.06637468 0.00020656607 -0.25980335
0.15257056 0.19794506 -0.02924199 -0.118204236 -0.10323077 -0.1971965 -0.17832957 0.1403535
-0.17346275 -0.16093989 0.03418674 -0.14342561 -0.2391139 -0.2718836 0.06123795 0.07285597

lstm.bias_ih_l0 f4 [256]
00000000: e680 ca3e 24bb 013e 2634 be3d 3876 6f3e
00000010: 9680 a83d 6b0e 3e3e 19bd eb3d 44c6 603e
00000020: 14cb 083e a029 d83e c16f 313e 602d abbd
00000030: 7070 153e 714d c53d 000a ca3e 0714 c33d
00000040: cf6a 9c3e a221 c93c 110e ab3c d60a 323e
00000050: a98c 043d b794 7bbd 7b87 21be dca7 973d
00000060: 37c8 a63e ce9e a7bd 07ca 193e d83e 813e
00000070: e1ea b83d 1087 fe3d e93c dc3c fe14 d43e
00000080: 90f6 193d ac2d 2a3e a9c2 633d 64ad 9d3d
00000090: 3ede 1a3e 68a3 07be 12fc 10bd e987 7a3e
000000a0: 90b2 1a3e 5cd9 bdbc 7cdf 2e3e f995 7a3e
000000b0: db46 303e 050b f63d 097f 2bbd 4538 6f3e
000000c0: 18dd d03e e672 193e 181b ef3d b1f2 cf3c
000000d0: 72d9 afbb 091b c03d 8ab1 f73d 3644 323e
000000e0: c8dc 743e 7b95 fb3e e906 343d 54b3 15be
000000f0: 7809 cd3c d240 493e 2173 663d bdeb 553e
00000100: 9283 b7bc eb02 81bc b751 49bc f777 f9bd
00000110: c7e7 a9bd 1bd3 433e 5770 a53c 0352 67bd
00000120: 4e51 083e f6fa b93d 7712 0c3d cf6c 7dbc
00000130: f81b 6dbd b34e dfbc a6fb 5ebe f544 78bd
00000140: 70fa b03d 1ce1 f13d b257 bb3b c13e 1ebe
00000150: 483b 6c3d f1f2 9c3d 64b7 abbd 90c3 b9bd
00000160: b761 aabd 46d1 f93d b0f0 f0bd 6ca6 023e
00000170: 05d8 a4bc 949d 87bd 2ca3 d7b9 a1ae 413a
00000180: 6320 913d e806 553b 26c6 fb3d 20ac fb3d
00000190: 7022 ccbc ec38 57be a0fb c43d 5b64 5d3d
000001a0: f1bc 0f3e c18c 2c3d 9596 0cbe 97ce 2d3e
000001b0: 1fa7 6f3e 31a7 0f3e 7324 15bd f6f1 debd
000001c0: d3bd 4fbd e9ae 89bd 228e f3bc 264c 663e
000001d0: ca78 c13d 005f 873e c12c 813d f67f bf3c
000001e0: d0c4 963d 2b57 57be d6a9 2c3e 4cd7 bf3c
000001f0: 9160 c4bd 5bfe 033e 6968 20be 38c2 ea3d
00000200: d290 213e 9aac 883d a58f 7dbd 1401 89be
00000210: 600a 1d3d 2190 0d3e d5b9 5ebd 3d18 4abe
00000220: 8639 a43e bd53 a83e 1716 2cbe c213 8ebe
00000230: f164 1dbe be52 e23d c93f 77be a92f 213c
00000240: fa26 4f3d 5bad 0e3e 3e8f bcbd 1aa9 723d
00000250: 9d43 623e d531 093d b50d 4b3d dd08 63be
00000260: 9bc1 803d fb43 89be 5b92 153e d959 3d3e
00000270: 0137 c43c 8281 1c3b 40af 693e e93d 02be
00000280: 27de 79be f218 77bb b16b a83d f3d9 fa3d
00000290: 8b9b 10bd d6fa 93bd 673f 803d 496b ffb8
000002a0: 3949 8a3d f556 953d 50af d23d 1f6d 6039
000002b0: 90b5 03bd abcd 4bbe 9666 b6bd 11be 183e
000002c0: d346 883e ed0e 353c a47c 503e 996a e2bc
000002d0: a173 25be 4b0e 1bbe 38dc 91bd 4ef8 a3be
000002e0: b525 05bd ba42 3abd 16c6 54be dba4 1c3e
000002f0: 952f 6bbd 636a bebe 0896 093d 9206 c93d
00000300: 9719 a83d dd4a 993e 5f86 f33d e569 393c
00000310: 8a0b 213e d48b 703e 18e2 b63d 80ed 9b3e
00000320: 7faf 233e 0114 96bd 940e da3c a0f0 d2bd
00000330: d3f9 843e 9ce3 42be c386 153e ef3d b63e
00000340: 666a b93d 1661 8a3e d9c6 b03e 14fe 893e
00000350: 689c b83c 40e5 bcbd 6f46 453e 6907 673e
00000360: d517 83bd a13d 64bd c5ab 2abc 02d9 623c
00000370: a313 8c3e b2c6 493d fbd3 8f3e b952 b33d
00000380: 0da2 da3d 1e01 c2bd 0e92 673e f885 f03d
00000390: da70 c43b f408 6abe 6743 a93e 0e0c 27be
000003a0: 8b6b 793e 6fb4 803e 60f2 803d 5f17 043d
000003b0: db65 31bd 6abe 5cbe 1eff 813e b423 643c
000003c0: 52a0 93bd 905c 8c3e cd63 663d 4f4a 623e
000003d0: 2e4e 5a3e e068 673e 6392 843e 81ef b43e
000003e0: 3046 873e ec25 b33e 6802 3c3e 7a12 0cbe
000003f0: 1889 0b3e 82f6 f6bd 8c58 593e 70c3 6e3d
0.39551467 0.12669045 0.0928729 0.2338494 0.08227651 0.18560188 0.11510677 0.21950632
0.13358718 0.42219257 0.17327787 -0.08358264 0.14593673 0.096339114 0.39460754 0.09525304
0.30550238 0.02455217 0.02088073 0.17386946 0.032360706 -0.061421122 -0.15774338 0.074050635
0.32574627 -0.081845865 0.15018474 0.25243258 0.090291746 0.12428105 0.026884513 0.41422266
0.037588656 0.16618985 0.055605564 0.07699087 0.15123841 -0.13245928 -0.035396643 0.24465908
0.15107179 -0.023174934 0.1707744 0.24471273 0.17214529 0.120138206 -0.041869197 0.23361309
0.4079368 0.14985237 0.116750896 0.025384279 -0.0053664977 0.093801565 0.1209441 0.17408833
0.23912346 0.49137482 0.043951903 -0.1461919 0.02502893 0.19653633 0.05626214 0.20890708
-0.022401605 -0.015748462 -0.012287549 -0.121810846 -0.08296161 0.19123499 0.02019517 -0.056474697
0.13312265 0.0908107 0.034197297 -0.0154678365 -0.057888 -0.027259206 -0.21775684 -0.060612638
0.08641517 0.11810514 0.005717241 -0.15453626 0.057673723 0.07663525 -0.08384588 -0.09070504
-0.08319419 0.12198119 -0.117646575 0.12758797 -0.020122537 -0.066218525 -0.00041129568 0.00073883875
0.070862554 0.0032505337 0.12293653 0.122886896 -0.024918765 -0.21017808 0.09618306 0.054050785
0.14036919 0.04212642 -0.13729317 0.16973339 0.23403595 0.14028622 -0.036411714 -0.10885994
-0.05071814 -0.067228146 -0.02973086 0.22489986 0.09446867 0.26439667 0.06307364 0.023376446
0.07361758 -0.21029346 0.16861662 0.023418091 -0.09588731 0.12889998 -0.1566483 0.114628255
0.15777901 0.06673546 -0.06190457 -0.26758635 0.038339972 0.13824512 -0.054376442 -0.19735809
0.32075137 0.32876387 -0.16805302 -0.2774945 -0.15370537 0.11050938 -0.24145426 0.009838023
0.05057428 0.13933317 -0.09207009 0.0592433 0.22096105 0.03349479 0.04957362 -0.2217135
0.06286927 -0.26809677 0.14606611 0.18491305 0.02395201 0.0023880904 0.22820759 -0.1271893
-0.2440115 -0.0037704078 0.082236655 0.12248602 -0.035304587 -0.072255775 0.06262093 -0.00012179331
0.06752247 0.07291976 0.102873445 0.00021402955 -0.032155573 -0.19902675 -0.089062855 0.14916255
0.26616535 0.011050922 0.20360047 -0.02763872 -0.1615739 -0.15142171 -0.071220815 -0.3202538
-0.032506663 -0.04547379 -0.20778689 0.15297262 -0.057418425 -0.37190542 0.033590347 0.09815706
0.08208006 0.2993993 0.118908636 0.011316751 0.15727058 0.2349084 0.08929843 0.30454636
0.15984915 -0.07328034 0.02661828 -0.10299802 0.2597185 -0.19032139 0.14602189 0.35594127
0.09053497 0.27027196 0.3452671 0.2695166 0.022535518 -0.092234135 0.1926515 0.2256142
-0.0640103 -0.055722836 -0.01041693 0.013845684 0.27358732 0.049261756 0.28091416 0.087560125
0.1067544 -0.09472869 0.22614309 0.117443025 0.0059948983 -0.22854978 0.33059236 -0.16313192
0.2435743 0.2513766 0.06296229 0.03224885 -0.043310028 -0.21557012 0.2538995 0.013924528
-0.07208313 0.2741437 0.05624752 0.22098659 0.21318886 0.225986 0.25892934 0.35338977
0.26420736 0.3498987 0.18360293 -0.13678923 0.13626516 -0.120587364 0.21225184 0.058291852

lstm.bias_hh_l0 f4 [256]
00000000: a8ff 7c3e 6320 a8bd a432 f93d 82e5 233e
00000010: 585d 543e 5fa2 353e 60a0 263e fb83 3f3e
00000020: 7ba0 18bd fb61 d93e b88d 753e da9e 1d3d
00000030: 5464 3f3e e866 233d f585 c53e 9fff 0f3e
00000040: 00ef 8c3e 3de3 233e 5f2a 163e 302e 213e
00000050: 17b0 893e 2333 bbbd 013b 1a3c 454c 043d
00000060: f654 903e 2218 46be 721c 4c3e 6f85 453e
00000070: d9c6 5d3d 5c80 a43c 511a 0c3d 035f a73e
00000080: 2d2c e13d e7b5 c43d ecd7 a93d 0547 5c3e
00000090: de9a 3c3e cc17 28be d2b4 babb f058 013e
000000a0: 6112 cf3d 2cfe 2f3d 2ecd 373e 839a 843e
000000b0: 2fe9 6a3e 7e85 273e 3350 85bd 8e67 7e3e
000000c0: 1c44 e03e 337f 323e 4a25 723e 2389 bcbb
000000d0: ef83 603e a7b2 823e d188 153e 770a a73e
000000e0: 23f2 873e 3934 d83e bd15 323e 48e6 6dbe
000000f0: 4901 103e b081 0d3e bc88 583e 2586 ed3d
00000100: 9643 61bd b9df 44bc baa0 c43d 4bc9 44be
00000110: 11fa a1bd 0949 843e ebbe cf3d a0fc 6ab8
00000120: fe40 75bd dbc3 243e c4ab 5e3e 326f d9bd
00000130: 0e0b abbb 315e 1ebe 9f9f 34be 480c d13c
00000140: bc53 353b 7d3a 283e 1857 42be 1da1 a4bd
00000150: bca4 ae3d 8f5f 3fba 6c3a 893c fc09 eebd
00000160: 0317 8bbd e722 bdbc 5222 163d e20a b63d
00000170: 47dc 30be c2fd 9e3c aa7c cb3c 8581 43bd
00000180: 8e3f 783e 06fd 21be 89ea 11bd 8c6c b83b
00000190: 8406 ec3d cef4 38be 8cc3 f13d 9f49 1d3e
000001a0: 104d f93d 2428 a63d ee08 c63d 00ff 553e
000001b0: be0b e43c 92fd 8d3e 70ad d63c b131 4fbe
000001c0: ce6b 2ebe fd1d edbd e0a9 993d eee1 8e3e
000001d0: 73eb 933d 0947 833e e986 663e b33c a7bd
000001e0: fe1a 133d 3c4e 51be b17d 4d3d 6765 52bd
000001f0: 8c65 acbd f4c5 9fbb de86 c3bc 0bfa 4b3e
00000200: d6e7 05bd da99 bb3d 5f01 65be 17cf b7bd
00000210: d7a9 d53c 7f57 1b3e 0030 5bbe 5c5a 39bb
00000220: 0fb7 413e 7c11 883e a28f 493b 5577 69be
00000230: 5cf0 88bd 6b73 8e3d 3264 0dbe ba95 2ebe
00000240: 5bc1 113d b94b 963d 86b3 d6bd 83ec 043d
00000250: 2f61 b53e 03be 473d b849 423d 059e a6bd
00000260: 08f6 9a3c ce6f 67be 28bc 553e e971 d23d
00000270: 3262 f73d 79b7 d53c faa4 803d da3c 95be
00000280: 2d14 82be 0aba 203d a55d 263e 68e0 323e
00000290: d2c6 8bbc 5a12 1fbd 4a38 efbc dc5b c63d
000002a0: 4f1a 463e 3c21 603d e7c8 9e3d 4ac7 f8bd
000002b0: cd99 9abd 6ad7 97be 6b9f 29bd 2459 933e
000002c0: 66a1 b03e 9ec9 e43d 21c4 1b3e 8dfa f4bd
000002d0: 3f9e a1bd 019f 4bbe 2ef3 883d 9a3d 92be
000002e0: f842 06be 5565 d9bd ab17 89bd a5c2 243e
000002f0: 227f 25be e919 2dbe c228 12bd 4c07 47bd
00000300: bd35 08bd 0c74 463e 3382 863e f8b2 1f3d
00000310: 651e 6ebd 28fa 773d da3d 3c3d d145 8d3e
00000320: de11 913e f98a 9cbd 1c86 fa3d 4c29 66bd
00000330: daff 853e 1f31 c6bd d28c dc3d d2fb 9d3e
00000340: a1e0 7e3e b1cd 563e 5148 9a3e 66c7 683e
00000350: f300 d3bc b9d0 69bd 17a3 fc3d 2b6f 803e
00000360: 9d5d 91bb cbf0 d53c 45c8 403d c32f 3f3e
00000370: 007c 353e 8df2 953d 4972 683e 94f7 f43d
00000380: 2238 703e d5c3 aa3c ef2a 023e de61 6c3e
00000390: 90c2 5f3e 5320 8abe ea8f 883e ddc0 27be
000003a0: a08b 0d3e b880 2e3e 3ea9 ca3d a9b1 46bc
000003b0: a458 083e 86dd 8cbd eade bd3d b6c0 c23d
000003c0: 2103 263d 8197 ec3d 540b ba3c 30e3 603e
000003d0: 5f2c 043e a584 963e d390 623e 454c 2e3e
000003e0: ca0a 5b3e 1727 663e 1e46 b53e 1acd 56bd
000003f0: 75bd 883e 437e 6fbd 8663 a73e 9b16 3c3e
0.247069 -0.08209302 0.12167862 0.16005519 0.20738733 0.17737721 0.16272116 0.1870269
-0.03726242 0.42457566 0.23979843 0.03848157 0.18690616 0.03989306 0.38578764 0.14062355
0.27526093 0.16004653 0.14664601 0.15740275 0.26892158 -0.09140613 0.009413482 0.0322993
0.2818982 -0.19345143 0.19932726 0.19289182 0.054144714 0.020080738 0.034204785 0.32689676
0.10994754 0.096050076 0.08293137 0.21511467 0.18418452 -0.16415328 -0.005697825 0.12631583
0.101109274 0.042967007 0.17949364 0.25899133 0.22940515 0.16359517 -0.065094374 0.2484419
0.43801963 0.17431335 0.23647037 -0.0057536527 0.21925329 0.25526926 0.14602973 0.32625172
0.26551923 0.42227343 0.17391105 -0.23232377 0.1406299 0.13819003 0.2114591 0.11597852
-0.054996096 -0.01201623 0.09600969 -0.19217412 -0.079090245 0.2583697 0.101438366 -5.6025223e-05
-0.059876435 0.16090338 0.21745211 -0.10616912 -0.0052198237 -0.15465619 -0.17639016 0.025518551
0.0027668318 0.16428562 -0.18978536 -0.080385424 0.08527514 -0.0007300311 0.01675149 -0.11622998
-0.067914985 -0.023087932 0.036653824 0.088887945 -0.17271529 0.01940811 0.024839718 -0.04773094
0.24242994 -0.15819177 -0.03562406 0.005628174 0.1152468 -0.18062136 0.11804876 0.15360115
0.12172902 0.08113125 0.09669672 0.20898056 0.02783763 0.2773252 0.026205748 -0.202338
-0.17033312 -0.115779854 0.07503104 0.27906746 0.07222643 0.25640133 0.22512402 -0.08165874
0.035914414 -0.2044 0.050168697 -0.051366236 -0.08417806 -0.004875893 -0.02386802 0.19919603
-0.0326918 0.09160204 -0.22363804 -0.08975046 0.026081963 0.15170096 -0.2140503 -0.0028282618
0.18917488 0.2657584 0.0030755778 -0.22799428 -0.0668647 0.06955608 -0.13807753 -0.17049304
0.03558479 0.07338662 -0.1048346 0.032452118 0.35425708 0.048765194 0.047433585 -0.081356086
0.018916145 -0.22601244 0.20872557 0.10275633 0.12079276 0.026088463 0.06281467 -0.2914799
-0.25406018 0.03923992 0.1624666 0.17468417 -0.017062578 -0.03883586 -0.029201645 0.096854895
0.19345973 0.054719195 0.07753163 -0.12147386 -0.075488664 -0.29656535 -0.0414118 0.28778946
0.34498137 0.11171268 0.15211536 -0.11961851 -0.07891511 -0.19884874 0.06687008 -0.28562623
-0.13111484 -0.10615031 -0.066939674 0.16089876 -0.16161779 -0.16904415 -0.0356834 -0.048590943
-0.033254374 0.19380206 0.2627121 0.038989037 -0.058134455 0.060541302 0.045957424 0.27592328
0.28333944 -0.076436944 0.122326106 -0.056191728 0.26171762 -0.09677338 0.10769047 0.30856186
0.24890377 0.20976903 0.30133298 0.22732314 -0.025757289 -0.05708382 0.123357944 0.25084814
-0.0044362084 0.026115796 0.047065992 0.18670563 0.17723083 0.073216535 0.22699846 0.11961284
0.23458913 0.020845333 0.1271169 0.23084208 0.21851563 -0.26977786 0.26672298 -0.16382165
0.13822794 0.1704129 0.09895562 -0.012127318 0.13315064 -0.0687819 0.09271033 0.09509413
0.040530328 0.115523346 0.02271048 0.21961665 0.12907551 0.29398075 0.22125559 0.17021282
0.21390834 0.22475849 0.35405058 -0.052441694 0.26707044 -0.058470022 0.32693118 0.18367998

lstm.weight_ih_l1 f4 [256, 64]
00000000: 4cc7 f43d a3cd 05be 6d51 fabc dee7 f0ba
00000010: b13b 63be 5bbf 963d 8182 22be f60d 4dbe
00000020: f9a3 3c3e 2785 383e a9d4 42be 1c20 a9bd
00000030: c679 45bc b99d 3bbe e5cf 0dbd 3856 09be
00000040: 1263 84be 828d cb3c 5c2c 20bd b9c2 f93d
00000050: 6fc5 963e 81e3 14bd 7bad 7fbe be76 343e
00000060: 7d7f 87be f7da 6a3d 515d 513d aa8b 4bbd
00000070: 8e31 283e ea79 a7bd e93a 09be 541b cebd
00000080: 9e47 62bd 8cb0 303d a479 763d a218 fa3d
00000090: f13d 8dbe 2743 e03d 85e8 803e d4c8 5d3e
000000a0: 65c3 e23d 168e 5e3e e7af 253e 3587 f7bd
000000b0: 0443 66be ff42 bcbe 91e6 3b3e 1586 09bd
000000c0: d144 5b3e 672b 793d 50a4 81be 4e35 16be
000000d0: a8be 39bc bfe1 29be 5e9a 41be 1c37 bdbd
000000e0: 5e6a 8b3d 3726 f9bd 043c 37be f187 bdbc
000000f0: 13f7 28be 534b 74be f628 873e 28f8 983d
00000100: f9b9 d5bc 742c a2be db8c 15be fb8b 0dbe
00000110: 5089 48be 6a30 5e3e bc17 17be 2ce6 c2bd
00000120: 11e7 313e d3b2 193e 71d3 80be edbf 893c
00000130: 4480 15bd c1e2 a33c 20ae 0abe 9148 cabd
00000140: b8a9 3fbd 8afd 583d bcb9 cfbb 5cec eb3d
00000150: 878a a33e b216 663d 03ed 793d 40d7 573e
00000160: f499 d9bd 4196 e33c 3b37 723c c675 ffbd
00000170: a94a 353e 552f 673c 10dc 9ebe d27a 713d
00000180: ee16 acbe 9f06 5ebd dd1d 813e 47cb e23d
00000190: 5ae3 7ebe 4b47 493d 3ca1 6d3e e4ed cb3e
000001a0: a54b b73e 412b 073e 6854 0f3d b601 39be
000001b0: b12c 02be b890 9fbe 9391 0a3e 461b d23d
000001c0: 741c 12bd ab99 ee3d 6bf7 39be 7c29 93be
000001d0: 730d 7bbe db94 abbe 4951 8ebe adba d5be
000001e0: a59e 8d3c 2809 e63c 49fd 98be d60b 533c
000001f0: fbbd 8ebe 126b 9cbd 662f 553e 3da5 1e3e
00000200: d5a9 84bd f71c 92be 5c2a 97be 8cdc 9d3e
00000210: 6d46 8fbd 3c78 573d 3920 5cbe de89 28be
00000220: 28d1 b33e a2c5 b13c 9f39 10be 5a10 c0bb
00000230: adad 3bbe aa78 a83b 204d fe3d 0aeb c2be
00000240: 72a1 003e 5181 823d f4a3 26bd 2de6 b93d
00000250: 4ee0 bd3c f8fc fabd 5983 1b3d bce6 f83d
00000260: b237 51bc ddba d33d 6986 19be 062e 013d
00000270: 7d9e 7d3e 5331 b2be d97e 5cbd 5863 3f3d
00000280: a34a 0dbe 1bb1 a9be e463 293e 4b73 a53e
00000290: 6e37 efbd 2ef7 a53b 6b70 d23e 23ed 883e
000002a0: 2a60 aa3e a130 643e 7c1e 99bd e0dd 47be
000002b0: 9c45 4cbe 6b25 c1bd bd4b 093e 84c2 4ebe
000002c0: 43cd 883c 8bfa e93d 39be ebbd 7299 f5be
000002d0: 80fb f7bd b129 cebe 3e32 37be bec6 27be
000002e0: 5e73 053e bd7e dfbd 27bd e1bd d875 e9bd
000002f0: 85b3 25be 2681 0ebd 5a68 283e 6cd7 773e
00000300: b0c9 50bd 1669 ffbe 8b2c b5be 10b2 95bc
00000310: bf07 3ebe bb2f 0a3e f835 89be 3791 08bf
00000320: 0f6b 703e c572 ef3d bec5 d5be ab5a 8e3d
00000330: 6475 8abd b28d 333c c023 e7bc 4ab9 9cbe
00000340: e69c 3dbe e9ca c13e 815e 183d fab8 7f3e
00000350: 90b3 a03d fd9e 1fbe 3538 1ebe 9b5b b63e
00000360: c1f3 1ebe 7c5d 0d3e 5da2 1c3d da11 d6be
00000370: a0f9 c83e cea4 a93e 6f83 a9be 376f 3abe
00000380: aabc 9fbc 6ef7 c83d bbdc c83e bc5d 573e
00000390: f5ae 2abe 12c7 313e 15c2 b53e 42a9 57bd
000003a0: 1143 ca3d 81f7 a83e c431 9b3d 5b84 e6bc
000003b0: c77f 0bbf c8fc b3bd 7c7b cd3e 5364 1cbb
000003c0: 039b e63d c66c 123f 7df9 b0be fffa 4ebe
000003d0: 38dd b9be 01c1 233e 8355 06bf c306 8cbe
000003e0: 8ce6 a3bd 32b4 a7bd e403 6abc 57fe 1dbe
000003f0: c65c b6be ebee 24bd b1c8 df3e 3141 db3d
0.11952075 -0.13066725 -0.030556405 -0.0018379649 -0.22190739 0.07360717 -0.15870096 -0.20024857
0.18421926 0.18019544 -0.19026436 -0.082580775 -0.012052959 -0.18321885 -0.03462209 -0.13411796
-0.25856835 0.02484775 -0.039104804 0.121953435 0.29447505 -0.036349777 -0.24968521 0.17623422
-0.26464453 0.057337727 0.051114384 -0.04969374 0.16425154 -0.0817755 -0.13401379 -0.10063806
-0.05524408 0.04313712 0.0601746 0.122117296 -0.2758632 0.10950308 0.25177398 0.21658641
0.11072425 0.21733889 0.16180383 -0.120863356 -0.22486502 -0.36769864 0.18349673 -0.033575136
0.2141297 0.060832407 -0.25320673 -0.14668772 -0.01133696 -0.16590022 -0.18906543 -0.09239027
0.06807397 -0.12165492 -0.17893988 -0.023136111 -0.16500501 -0.23856859 0.26398438 0.07469207
-0.026089655 -0.3167454 -0.14604513 -0.1382293 -0.1958363 0.21698156 -0.14755148 -0.09516558
0.17373301 0.15009622 -0.25161317 0.01681515 -0.036499277 0.020005586 -0.13542986 -0.09877122
-0.046792716 0.05297617 -0.00633928 0.11519691 0.31941625 0.056173988 0.061017048 0.21078205
-0.10625067 0.027781608 0.014783676 -0.124736354 0.17704262 0.014110406 -0.3102727 0.05895502
-0.33611244 -0.054205533 0.25218096 0.11073928 -0.24891415 0.049140256 0.23206037 0.39829934
0.357999 0.13200094 0.034992605 -0.18067059 -0.12712361 -0.311651 0.13532095 0.10259108
-0.035671666 0.116504036 -0.18160789 -0.28742588 -0.24516849 -0.33512005 -0.2779639 -0.41743985
0.017287562 0.028080538 -0.2988074 0.01288124 -0.2787932 -0.076376095 0.20818862 0.15492721
-0.064777054 -0.28537723 -0.29524505 0.30832326 -0.069958545 0.0526049 -0.21496667 -0.16458842
0.3512051 0.021700684 -0.1408448 -0.0058613243 -0.18327971 0.0051413374 0.12417054 -0.38069946
0.12561586 0.063723214 -0.0406837 0.09077106 0.023178246 -0.12255281 0.03796706 0.12153384
-0.012769626 0.10338376 -0.1499268 0.031538032 0.2476749 -0.34803256 -0.05383191 0.0467256
-0.13798003 -0.33142933 0.16542011 0.32314524 -0.11680494 0.0050648665 0.41101393 0.2674342
0.33276492 0.22284175 -0.074765176 -0.19518232 -0.19948429 -0.09430965 0.13407798 -0.2019139
0.016699439 0.114247404 -0.115108915 -0.47968632 -0.12108517 -0.40266183 -0.1789026 -0.16384408
0.1303229 -0.10912845 -0.11022406 -0.1139943 -0.16181763 -0.034791134 0.16446057 0.2420327
-0.050973594 -0.49884862 -0.35385546 -0.018273383 -0.18557642 0.1349477 -0.26798987 -0.5334658
0.2347834 0.116918124 -0.41752428 0.06950887 -0.06760672 0.010959076 -0.02821529 -0.30610114
-0.18516883 0.3785012 0.0371995 0.24972907 0.07846749 -0.15587993 -0.15451129 0.35616764
-0.15522672 0.13805193 0.03824078 -0.41810495 0.3925295 0.33133548 -0.33108088 -0.18206488
-0.019499142 0.098128185 0.39230904 0.2103185 -0.16668303 0.17361096 0.35499635 -0.05265165
0.09876073 0.3300133 0.075778514 -0.028139284 -0.5449185 -0.087884486 0.40133274 -0.0023863509
0.11260035 0.57197225 -0.34565344 -0.20212935 -0.3630159 0.15991594 -0.5247423 -0.2734891
-0.08002958 -0.081886664 -0.014283154 -0.15429054 -0.35617656 -0.040266912 0.43707803 0.10705794

lstm.weight_hh_l1 f4 [256, 64]
00000000: 2f17 1cbe 142d 133d 2c06 d3bc 6970 223e
00000010: 432f 2bbe 6a2e 9fbd 8a39 4fbd 39e5 0ebd
00000020: f909 3cbe c55a 343e bab3 a63d 2a9a 19be
00000030: 4012 c43d 5128 c13d 93ba ca3a fc52 fd3d
00000040: 6b4e bb3c 1cd4 8ebd b175 b23d 6248 35be
00000050: d067 87bd 5aaf 6c3d dfa0 ef3d 7ec8 0cbc
00000060: 44fb 24be 164e a43d abca 4bbe cdd5 43be
00000070: e5a7 abbd 37bf d7bd 54aa 153e 9ba1 8e3d
00000080: 1441 1abd eda8 023d e4d1 1dbe cd16 20bd
00000090: 6dd7 c8bc 7c52 80bc 4dbf 883e 60f9 38be
000000a0: 228e b73d 347f 94bb 4ff4 6d3d 23d8 0ebb
000000b0: f455 0c3d f365 b53d b198 e4bc 8891 71bc
000000c0: c076 b43b 20f4 91be 5615 80bd bd5b ccbd
000000d0: d826 1b3e c481 4a3d dc30 763d c291 dabd
000000e0: 2995 a3bd 8a1e 2d3d 0657 9dbe d6a5 623d
000000f0: e373 b83d baee 443c dadc a23d 273f ae3c
00000100: 8ce5 5fbd 0f41 5f3d b811 f0bd 14e3 3d3c
00000110: eff9 2cbe 93d0 2ebd 91a9 18bd a36d 443d
00000120: 89b1 21be 7df3 08bc 3bf6 033c e4d6 2cbe
00000130: a498 ddbb 2f4f e23d ed72 37be eeb8 403e
00000140: 8166 bdbe fff1 3d3e 4b1a a33e 9a7d 27bd
00000150: a3a4 303d 1258 53bc 8f3e 8e3e 907d 023d
00000160: a817 70bd db96 10be 3ba3 83bd 2e3f 1f3d
00000170: d5d8 e73d 1746 80be 7c3d ac3d cd33 81bd
00000180: 52bb ec3d dd60 ca3d 066c 8abe feee 95be
00000190: 3406 5bbe 3835 443d 73f1 7f3e aacc 1ebe
000001a0: e89d 7f3e d983 983d 6fc8 403e 0670 003e
000001b0: ee4c e3bc b9e5 9c3d 9f14 05bb 5aba 0b3e
000001c0: 0d9e 23be a957 0bbe e90c 81be 59a8 eabd
000001d0: dbcc 49bb f47e a3bd 769c 023d 0f17 2fbe
000001e0: e622 f73d 8f62 1e3d 49bf 26be b0b9 753d
000001f0: b14b 85bd c228 81be ee8b 9c3d 46b8 863c
00000200: 74bb 4dbd a26a a33d dc98 d8bd 346e 30bc
00000210: 4d25 6bbe d076 7a3d 7812 943d 0b8a b03d
00000220: a958 23be bb48 fc3d 98b1 cdbc 61f5 75bd
00000230: b146 57be 2be3 1d3d a1d2 63be d456 cfb9
00000240: 5132 21be 00e5 dfbd 5617 443d 89c1 2fbe
00000250: 70f7 793d 907e 053d ecac 163e a50d 353e
00000260: 4b73 d4bd 0d34 86be a4e0 9bbd 1e63 543d
00000270: f22b a53d e612 a4bd 1c07 a93d 1468 17be
00000280: 5f93 50bd fd69 0e3e 7de1 49be a16c 53be
00000290: 6a5e 753d bcce 8737 4890 233e 943b 9d3d
000002a0: 0ab0 6e3d 09b1 4d3b 351f 223e e502 7d3d
000002b0: 15e6 babd 80f8 163c 1cbe c03d c3d3 82bd
000002c0: ce60 15bd f781 42be ea6a 86bd fbca edbd
000002d0: 5383 353e 2be4 f9bc 2f20 2c3e c067 8c3c
000002e0: 666d f33d 15c4 5bbd 19a7 67be 1f40 e33c
000002f0: eb3f 253e cbc7 24be 4c4d 36be 9391 16be
00000300: ef62 163d da93 fabd 4ee1 2abe 5363 083e
00000310: d379 4ebe 2453 423d 72da 97be bd68 3b3d
00000320: a1de c5bc ed6e 293e fb48 27bd 8871 11be
00000330: 7573 b3be 977d 1c3e 5e7a 563e 165c d43d
00000340: 6827 a73b 2c4b 11be fb76 79be e47c 34be
00000350: 424b 47be b99a 27be b742 0d3e 784c 673e
00000360: 4cf9 d2bd 763c dcbd 5ae4 c13d b6ee d83d
00000370: 930e f1bd 3ec5 1dbc 8afb 123c e97f 9ebb
00000380: 3072 8cbd cd9c 0ebd f74a 9b3c a72b 0b3e
00000390: 4bb0 d63b b15b 803c 20ad 1f3e 5e76 3ebc
000003a0: 0d12 ac3d 8952 263d 8deb 173e 4e15 543e
000003b0: 4afc 6cbe 3cac 193e 3847 103e 714c 75be
000003c0: cf6b 2abe edec d23d a065 5c3e 4d15 d7bd
000003d0: c04d 8ebd 5cf9 ddbd ca66 6abe 814a c5bc
000003e0: a706 0dbd 6229 3bbe 9c26 2b3d c2ff 5f3e
000003f0: 30c4 42be 0110 b73d f7b5 4e3c adfc 9ebd
-0.15243219 0.03593166 -0.025759779 0.15863194 -0.16717248 -0.07772525 -0.050591983 -0.034886573
-0.1836318 0.17612751 0.08139749 -0.15000215 0.095737934 0.09431518 0.001546698 0.12369344
0.022864541 -0.069740504 0.08713854 -0.17703393 -0.066115975 0.057784416 0.117006056 -0.008592723
-0.16111475 0.08022706 -0.1990153 -0.19124527 -0.08381633 -0.10534518 0.14615756 0.069644175
-0.03765972 0.03189938 -0.15412098 -0.039084245 -0.024516786 -0.015664332 0.2670845 -0.18063879
0.089626566 -0.0045317654 0.05809432 -0.0021796308 0.03426166 0.08857336 -0.02790484 -0.01474417
0.00550732 -0.28506565 -0.062540695 -0.09978435 0.15151536 0.04944016 0.06010519 -0.10672332
-0.079874344 0.042265452 -0.30730456 0.055333935 0.09006479 0.0120198075 0.0795228 0.021270348
-0.054662272 0.054505404 -0.117221296 0.011589784 -0.16892217 -0.04267938 -0.037271086 0.04795612
-0.1579038 -0.008358833 0.008054311 -0.1687885 -0.006762581 0.11050259 -0.17914934 0.18820545
-0.36992267 0.18549345 0.31855997 -0.040891267 0.04312576 -0.012899416 0.27782103 0.031858027
-0.05861631 -0.14120047 -0.06427618 0.038878612 0.11320654 -0.25053474 0.08410165 -0.06308708
0.11559166 0.098817565 -0.2703554 -0.292839 -0.21389085 0.047902316 0.2499445 -0.1550776
0.2496258 0.07447023 0.1882646 0.12542734 -0.027746644 0.076610036 -0.002030648 0.13645306
-0.1597826 -0.13607658 -0.25205162 -0.11457891 -0.003079227 -0.07983199 0.031887494 -0.1709864
0.12067203 0.03866821 -0.16283907 0.05999154 -0.065085776 -0.25226408 0.07643877 0.01644529
-0.050227597 0.07979323 -0.105760306 -0.010768462 -0.22963448 0.061148465 0.07230085 0.086200796
-0.1595179 0.1231856 -0.025109097 -0.060048465 -0.2102306 0.038546722 -0.22248317 -0.0003954681
-0.1574185 -0.1093235 0.047873817 -0.17163672 0.06102699 0.032591403 0.14714402 0.17680986
-0.10373553 -0.26211587 -0.07611206 0.051852338 0.080650225 -0.08011417 0.08253309 -0.14785796
-0.050921794 0.13907619 -0.19714923 -0.20646907 0.059904493 1.6189522e-05 0.15973008 0.07677379
0.058273353 0.0031386039 0.15832217 0.06177034 -0.09125916 0.00921452 0.094112605 -0.063880466
-0.036469273 -0.1899489 -0.06563361 -0.11610981 0.17725877 -0.030504307 0.16809152 0.017139316
0.118861005 -0.053653795 -0.22622336 0.027740536 0.16137664 -0.1609184 -0.17802924 -0.1470397
0.036715444 -0.12235232 -0.1668751 0.13319139 -0.2016366 0.04744257 -0.29658848 0.045754183
-0.02415401 0.16546221 -0.040841084 -0.14203465 -0.35049024 0.15282284 0.20945117 0.103691265
0.005101133 -0.14188832 -0.24361794 -0.17625767 -0.19462302 -0.16367616 0.13794981 0.22587764
-0.10301456 -0.107537195 0.09467383 0.105924055 -0.11770358 -0.009629546 0.008971104 -0.0048370254
-0.06857717 -0.034817506 0.018956644 0.13590871 0.0065517775 0.015668722 0.15593386 -0.011624901
0.084018804 0.040606055 0.14835949 0.20711252 -0.23143116 0.15007108 0.14089668 -0.23954941
-0.16642688 0.10299096 0.21523142 -0.1050211 -0.069484234 -0.10838577 -0.22890773 -0.024083378
-0.034430172 -0.18277505 0.041784868 0.21874908 -0.19020152 0.089385994 0.012616626 -0.07763038

lstm.bias_ih_l1 f4 [256]
00000000: 804b 333e 7c78 cc3c 102a 703d f661 433e
00000010: 4be3 fc3d b2a6 6a3d e189 163e cc4b 733d
00000020: 3683 cd3d 43b2 a83c dd5b 813e 3acb 4e3e
00000030: a3d5 b03d 8dcf 063e 496c 083e 46d1 aa3d
00000040: 1a0c 573e 7dd0 1d3e 52a8 c03e 40a0 fd3c
00000050: 3fb5 1c3d 190b 603d 971c 033e 955d 943d
00000060: 0317 153d bf50 193e e7ef 41bc 7453 b33c
00000070: 6231 c93c e5c0 da3d ffe3 123c a482 3e3e
00000080: a593 0cbd 1556 623e 7683 443d 0a58 ea3d
00000090: 54f5 8fbd 00d2 163d 8853 4e3e 1578 373e
000000a0: 8b28 4b3e e6f4 95bd b90b 043e dc5f c13d
000000b0: 0dd4 81bd 3fa1 133e 0133 623e 91e8 d33d
000000c0: f436 0f3e 4271 a23d ea5d 9c3d 9b92 123e
000000d0: a2ff adbd ebac 483e 9302 373d 1b66 993c
000000e0: f161 023e 8425 713e 27d0 a83d 183a 823e
000000f0: 6a7d a23c a0a7 3b3e aea2 cabd 7d76 06bb
00000100: ebaf 973d 3c67 cc3c c23b 2b3e 9652 9abb
00000110: 2677 163d dc36 453e 8206 fcbc 02c9 ca3d
00000120: 5c11 0e3e 37ca ba3d ff86 613d 62b1 063d
00000130: 5799 f53b 5cfa 51bc 79f8 843d 5b09 5d3e
00000140: 0790 373e 6e0c 4e3d df4c 933d 6aaa ad3d
00000150: 1636 8a3c 44ee c23b 2de0 773d 3365 fa3d
00000160: 88ca 983c a7ec 213e a15f 19bd 8aeb 183e
00000170: d7a1 2b3e 2d9b bbbc 6d1b 31bd f45a 4bbd
00000180: 3181 1b3e 8bd7 f53d ab34 0ebd f33a 073e
00000190: fe11 abbd 3a5c 14bb 4c2b e13d 05f9 2a3e
000001a0: 6ac0 5ebd 6034 543e 1915 ab3c fdc2 3e3e
000001b0: 6a01 2d3e 66fc 1abc 138e 183c f4d1 b83d
000001c0: 8af7 33bd 10c0 953d a0ab 6e3c e75d d03d
000001d0: 3c0a 2a3e 3baa 9abc 6f26 1a3e 10d9 583d
000001e0: 8cfc c23b 126c ebbd 044c 6bbd 1a7a a63d
000001f0: 52c3 65bd 3563 fa3d 51b4 3bbc dbe8 7e3d
00000200: a454 7b3b 8712 b03d 5d44 eb3b 6389 bebd
00000210: 4bec 973c 125e 8dbd c8da c7bc 77b4 743c
00000220: 5148 02bd 0d61 d93d f9fc 89bd 095a 853d
00000230: beec ab3d 966a 50bd b840 433d 9cdc a13d
00000240: a6d4 94bd 12cf f7bd 8bfe 56bd 00e4 88bd
00000250: fd2a b6bd f178 ba3d fad5 913c 94f1 66bd
00000260: eb1a 443c 4a33 6c3d b5a2 35bd 3a73 69bd
00000270: d17c 5cbc 6021 15bd 209b 383b e08a a9bd
00000280: ab83 ef3d 044c cd3d bb9e 303d 2bd7 2fbd
00000290: c17f b3bd ea75 98bd c303 d4bc d744 18bb
000002a0: e4f6 f7bc 82a0 05bc 2d77 5c3d 125f 76bd
000002b0: e7ce a83d 9bbc 583d a75a c7bd e771 4e3d
000002c0: a70d aabc 97a2 03be b1f6 e0bd 724f e63c
000002d0: 8882 7c3d a357 afbd 387b 213d cd5a d93d
000002e0: c12b 0f3d 8d31 16bd b601 f03d 98b5 513b
000002f0: ee26 1d3e efd6 41bd 3d29 eabd 2e41 f9bd
00000300: 3e44 413e 1962 633d 0bef cbbd 644f a83d
00000310: 451e b7bc b343 963e 627c b33d dda2 2c3e
00000320: dec3 063e 2ac5 1f3e 81dd 463e b8dd a33e
00000330: d124 953e da58 6e3c 34c7 a33d 05ed b53d
00000340: b56f 5b3e 1aae b3bc 2fa8 b93e 2818 783e
00000350: 78e7 ac3d 2c0a 583e 5f7f 1c3e 4b26 5f3e
00000360: 1c97 e63d 1602 463e 1432 d63d 55f8 89bd
00000370: ce5d 773d 1534 f4b9 7e18 953c 91a0 433e
00000380: ceb4 5b3d c69c 503d 19a3 653e b70e 863e
00000390: 1c09 d2bc 9cfa ff3d e93c 473e 4fba 8b3d
000003a0: d47d 993e dd28 8d3d e300 7c3e 5674 253e
000003b0: 4650 833e 2f19 bbbd db39 743d 53ba 073b
000003c0: 4fd3 783d 6c46 053e 7199 6d3e a061 45bd
000003d0: c4ff a03d f345 3a3e 0031 333e cffb cd3d
000003e0: 501e 8f3d 1282 973e 5085 a13d bbc8 8a3e
000003f0: cd08 8b3e 8a36 6a3e 8dea f53d bcd2 b23d
0.1750927 0.024959795 0.058633864 0.19080338 0.1234804 0.05728788 0.14701034 0.059398457
0.10034792 0.020592814 0.252654 0.20194712 0.08634498 0.13165112 0.13322558 0.08340697
0.2100071 0.15411563 0.37628418 0.030960202 0.038258787 0.054698084 0.12803875 0.07244412
0.0363989 0.14972208 -0.011836982 0.02189038 0.02455968 0.10681323 0.008965491 0.18604523
-0.034320492 0.2210315 0.047976933 0.11442573 -0.070292145 0.036821365 0.20149052 0.17916901
0.19839685 -0.07322101 0.12895097 0.09442112 -0.063392736 0.14416979 0.22089769 0.10347093
0.13985807 0.079317585 0.076351 0.14313738 -0.08496024 0.19597213 0.04468019 0.018725445
0.12732674 0.23549467 0.08242827 0.25434947 0.019835193 0.18325663 -0.0989431 -0.0020517402
0.074066006 0.02495157 0.16722015 -0.004709552 0.036734723 0.19259208 -0.030764822 0.099016204
0.1387381 0.09120601 0.055060383 0.03288401 0.007495086 -0.012816038 0.06492705 0.215856
0.17926036 0.050304823 0.071923964 0.084797695 0.016871493 0.0059488136 0.060516525 0.122263335
0.018651262 0.15812932 -0.037444714 0.14933601 0.16760956 -0.022901142 -0.043239046 -0.049647287
0.15186001 0.12004002 -0.034718197 0.13206081 -0.08353041 -0.002263798 0.10994586 0.16696556
-0.05438272 0.20723104 0.020884084 0.1862907 0.1689507 -0.009459591 0.009311217 0.090244204
-0.043937244 0.07312024 0.014567286 0.101741605 0.16605467 -0.01888 0.15053724 0.052941382
0.005950516 -0.11495222 -0.05744554 0.08128758 -0.056094475 0.122259535 -0.011456565 0.062233787
0.003835001 0.08597284 0.0071797804 -0.09303548 0.01854529 -0.06902708 -0.024396315 0.014935604
-0.031807248 0.10614214 -0.06737704 0.065113135 0.08394764 -0.0508829 0.047669142 0.07903406
-0.07267122 -0.121000424 -0.052488845 -0.066841125 -0.08894918 0.09105099 0.017802227 -0.05638273
0.011969308 0.0576661 -0.044344623 -0.056994654 -0.013457493 -0.036408782 0.0028168634 -0.082784414
0.116950355 0.100242645 0.043120127 -0.04292981 -0.087646015 -0.07444365 -0.0258807 -0.002323439
-0.030269094 -0.008155944 0.053824592 -0.06014926 0.082425885 0.052914243 -0.097340874 0.050401594
-0.020758463 -0.12854992 -0.10984553 0.028114054 0.06164792 -0.08561637 0.03942415 0.10613022
0.034953836 -0.03666835 0.11719076 0.0031999107 0.15346882 -0.047324117 -0.11433647 -0.12170635
0.18873689 0.055513475 -0.09957703 0.082182676 -0.0223533 0.29348525 0.087639585 0.16859002
0.13160655 0.15602556 0.19420435 0.32005095 0.2912965 0.014547551 0.07996979 0.088830985
0.21429332 -0.021933604 0.36261126 0.24227965 0.08442587 0.2109763 0.15282963 0.21791951
0.112592906 0.19336733 0.104587704 -0.06736819 0.060392193 -0.0004657811 0.018200155 0.1910422
0.053639226 0.05093076 0.22425498 0.26183102 -0.02563911 0.12498972 0.19456829 0.06822645
0.29978812 0.0689256 0.24609713 0.1615766 0.2564718 -0.09135663 0.059625488 0.0020710423
0.060748395 0.13015145 0.23203065 -0.048188806 0.078612834 0.18190746 0.17499161 0.10057794
0.069882035 0.29591423 0.078867555 0.2710627 0.27155152 0.22872368 0.12007628 0.08731601

lstm.bias_hh_l1 f4 [256]
00000000: aa67 773e 5f8a 4dbd 838a b2bd 0cbc 443e
00000010: e100 c23d 1a63 253d af60 84bc 715e c13d
00000020: a9ef 9abd 9f8a 9f3d f3eb 3b3e be77 c33d
00000030: 9c76 073e 29cf 353e bd74 333d f7cf ecba
00000040: 40ec 3f3e ad0d d63d 6cd8 923e cb55 143e
00000050: f47b 293e bac9 b03d e6d6 ff3c 53c9 693d
00000060: ab0b 183d 72c5 193e dcf4 9c3d 76c8 68bc
00000070: 5d12 ef3b 2997 323d db41 f3bd 92c2 023c
00000080: 2945 2c3e e486 093e fa56 843c 380a 873e
00000090: 46ea 063e 1e44 723c ea3d f53d 1fc8 d23d
000000a0: 3ae4 5a3e 31e5 01be c2cc 133e d2ac 3a3e
000000b0: e645 07bc ddbc 1b3d c17d 493e 7a37 1c3e
000000c0: 7d76 84bd 0b7c 223d c544 e13d 2a74 b8bb
000000d0: 8be1 37bd c759 fc3c 9254 5f3d 85d7 573e
000000e0: a7c5 423c 2788 fc3c 7950 cd3d fc22 a13e
000000f0: 9136 02be b057 893e 2634 c239 00aa fa3c
00000100: f71c d6bc 55ee c8bd 064e b73d b0b6 18bc
00000110: 0372 303e 9b12 a63d 2608 093e b5d0 43bd
00000120: 06a4 2b3c 8e56 f83d c7f4 133e 2df4 a9bd
00000130: a2f8 103d 4e59 2e3e 371c d1bd 5011 6fbc
00000140: f112 a3bb 5421 683d 68e7 843d 0c78 413d
00000150: b479 b73c c709 8fbc d923 f93d e001 cb3d
00000160: 68f1 373e c6cf d13c 7a39 8f3d 280f 173e
00000170: bf8e 233e 1327 cc3d 0641 4a3d 88b2 2c3d
00000180: 3155 de3d 2bbb bfbc 8d07 993c 3847 3b3d
00000190: 724f 5a3d 0e6f ee3d f39a df3d 7940 353e
000001a0: 9263 d73d 139b 553c 974e 02be f08d 9c3d
000001b0: 201b 80bd 6136 3b3b 0d4c 063c 50b4 f1bb
000001c0: 89f1 8c3c 4dea 543e c836 1b3e 030b e23c
000001d0: 9d6f 1e3e 8d33 b7bd 8b8d 9d3d 2b6d c63d
000001e0: b80a 6c3c 7060 5d3c 4bed 013e a2e8 043d
000001f0: ccec d83d 70e2 60bd 4d54 4abd 4ec8 913d
00000200: 2708 0b3d f404 a13b 70d9 29bd 2be8 a2bd
00000210: 5d55 453d f03b d63d bdbe 88bd c7a8 553d
00000220: 4dad fd3c 2659 fc3c ecb5 25bd 296f 8cbc
00000230: 6f1d 913d d205 d3bc 8989 b33d d6d1 0c3d
00000240: 2131 00be 5f73 b83c 4bb6 86bc 8eaf a13d
00000250: a103 9bbc 99ea 183c e80a c03d c514 ec3d
00000260: 027b c8bb d3ba b63d 63f4 ddbd a7f3 333d
00000270: d776 e3bd 4d38 273c 051d 513c 59b6 b23d
00000280: 8279 84bd da64 a93d c96a d6bc 3c7a cf3b
00000290: 8a2e a53c dc01 c2bc f399 763d 75b1 8f3b
000002a0: 4ee5 f4bd b55b febd a571 853d 850f 573d
000002b0: 4e2f 61bd 5a7b 5dbc f4b2 843d edc2 01be
000002c0: 442c 83bd 54ad 12be a321 e8bd 5141 cabd
000002d0: 5e80 d73d 85ca 7dbc a7d9 fc3c fcd6 7f3d
000002e0: 4a7c adbd 1b38 9a3d 92b9 2c3d 125b 12bd
000002f0: bfe1 293e 20da c437 c155 00bb a10f ffbd
00000300: e52d d73d c076 423e 6694 84bd b530 973d
00000310: cbbb 8cbc 5531 983e 0148 433e 964b 2f3e
00000320: 3760 8b3c 2841 9d3e e361 123e f794 a43e
00000330: 28aa 113e 4953 293e fe36 8b3e 1156 0f3e
00000340: 9f8a bf3c bd9b 2a3e d469 d13e 9f21 6f3e
00000350: e27f 513e 7a48 2f3e 88d5 193e 6233 d03d
00000360: 0de1 ca3d 7b2d df3d 6c73 01bd 2eec ff3d
00000370: 1f74 253c 5053 223e c8b5 a73d b222 d23d
00000380: dd85 753e 087e fe3c 7439 b73c 945e 793e
00000390: 2ce3 403e ec24 9a3d fdd3 903e 637f 783e
000003a0: ad71 5b3e 3be5 a63c bb85 033e a228 5a3e
000003b0: eb0d 3e3e 5ed1 e93d 36b0 5f3e 3a5d 323e
000003c0: a77e 033e c746 ef3d cdfe 3b3e 241a df3d
000003d0: 4d41 ae3d 16b2 813e 1d88 f03d e786 513e
000003e0: a682 623c 6e5d 203e 8259 f23d 0a2e f83d
000003f0: f028 b13d 9866 813d b306 cebb e5e6 cb3d
0.24160638 -0.05018079 -0.08717825 0.19212359 0.09472824 0.040377714 -0.016159384 0.094418414
-0.07565243 0.07790112 0.18351726 0.095443234 0.1322884 0.17754807 0.043812502 -0.001806735
0.18742466 0.10451827 0.28680742 0.14485852 0.1655119 0.08632226 0.031230401 0.057076763
0.037120502 0.15016726 0.07663891 -0.01420795 0.0072958902 0.04360119 -0.11877795 0.0079809595
0.16823258 0.13430363 0.016154755 0.26374984 0.13175306 0.014786748 0.119747 0.10292076
0.21376124 -0.12685086 0.14433578 0.18229988 -0.008256411 0.03802191 0.19676878 0.15255538
-0.06467912 0.039669078 0.10999445 -0.005629082 -0.04489283 0.030804528 0.054524012 0.21078308
0.011887944 0.030826641 0.100251146 0.31472003 -0.12716128 0.26824713 0.00037041417 0.03059864
-0.026136858 -0.09811083 0.08950429 -0.0093209 0.17230992 0.081090175 0.13382015 -0.04780646
0.010476118 0.12125884 0.14448844 -0.08298526 0.035393365 0.17026255 -0.1021046 -0.01459153
-0.004976623 0.05667241 0.0648945 0.047233626 0.0223969 -0.017460717 0.121650405 0.09912467
0.17963183 0.02561177 0.06993385 0.14751875 0.15972422 0.0996839 0.049378417 0.04216245
0.10856093 -0.023404678 0.018680358 0.045722216 0.05329842 0.11642276 0.10918226 0.17700376
0.105170384 0.013037461 -0.12725292 0.0764426 -0.06255174 0.0028566348 0.008196843 -0.0073762313
0.017205017 0.20792504 0.15157616 0.027593141 0.15472265 -0.089453794 0.07693013 0.09688791
0.014406852 0.013511762 0.12688176 0.03244842 0.105920404 -0.054903448 -0.0493968 0.07118283
0.03394332 0.0049139205 -0.04146713 -0.07954439 0.048177112 0.10460651 -0.066770054 0.05216291
0.030966425 0.030804228 -0.040456697 -0.017142849 0.07085692 -0.025759611 0.08766467 0.034379803
-0.12518741 0.02251595 -0.016444346 0.078948125 -0.018922629 0.009333276 0.0937708 0.11527399
-0.0061181793 0.08922353 -0.10837629 0.043933537 -0.11106651 0.010206294 0.012763266 0.08726186
-0.06468488 0.08271189 -0.026173966 0.00633171 0.020163793 -0.023682527 0.06020541 0.004385168
-0.11957799 -0.124198355 0.065158166 0.052505035 -0.054976754 -0.013518179 0.06479445 -0.12672015
-0.064049274 -0.14323932 -0.11334541 -0.09875739 0.10522531 -0.015490179 0.030865503 0.062460884
-0.08470972 0.075302325 0.04216916 -0.035731383 0.16590022 2.3466593e-05 -0.0019582363 -0.12454153
0.105068006 0.18990612 -0.06473617 0.07382337 -0.01717939 0.29725137 0.19070436 0.17118677
0.017013652 0.30713773 0.14295153 0.321449 0.14225066 0.16535677 0.27190393 0.13997675
0.02338153 0.16660972 0.40901053 0.23352669 0.2045894 0.17117491 0.15022862 0.101660505
0.09906206 0.108973466 -0.031604216 0.124962196 0.010098486 0.15852094 0.08188969 0.10260524
0.23976846 0.031065956 0.022366263 0.24352485 0.18836659 0.075265735 0.28286734 0.24267344
0.21430083 0.020372977 0.12843983 0.21304563 0.18559997 0.11416887 0.21844563 0.17418376
0.12841283 0.116834216 0.18358918 0.10893658 0.08508549 0.2533118 0.117447115 0.20461617
0.013825094 0.1566064 0.118334785 0.12118156 0.08650386 0.06318396 -0.0062874197 0.09956149
