models/Adam_batch_size=16_epoch=5.pt (torch_old, 260165 bytes, 10 tensors)

lstm.weight_ih_l0 f4 [256, 1]
0.1194739 -0.05812436 0.019456638 0.028753389 0.041241415 -0.08033665 -0.022220314 0.016928185
-0.02098343 -0.10015988 0.015369645 0.10609971 -0.08657054 -0.086363025 0.013635138 0.09999634
0.11486493 0.14579074 0.116507575 -0.058900815 -0.0005962348 0.022853177 0.008695583 -0.083538614
-0.048308756 -0.07094984 -0.027115885 -0.016313247 -0.058560926 0.019667953 0.13914396 0.1300104
0.08596791 0.14348072 0.055530097 0.15555431 -0.048613265 0.109134905 -0.09193751 0.01373191
0.097059816 0.15221246 -0.12290258 0.021275464 0.05957864 0.0056290557 0.06400837 -0.09646705
-0.053103484 -0.044440072 -0.011440167 0.084686965 -0.050606918 -0.06693508 -0.057584662 0.102310225
0.090507835 -0.02428207 0.16550842 -0.032463502 0.015109248 0.08613599 0.12138628 0.10621316
0.10348237 0.12341743 0.08791591 -0.08245405 0.09882732 -0.071311854 0.10609417 0.0086880345
-0.008903982 0.08280407 0.06473824 0.1065557 0.14978859 -0.09931189 0.013786364 0.06883783
-0.027083404 0.0076810885 0.018493142 0.10441683 0.038719736 0.053955615 0.07110953 0.14721316
-0.110867225 0.0509913 -0.060488116 -0.018888755 0.14874543 -0.027821561 -0.0179312 0.023528472
0.069833934 0.1174343 0.044645667 0.116679855 0.05965421 0.035733435 0.028494125 0.013296617
-0.004407834 0.14228217 -0.07947145 0.012508218 0.05265117 0.040571745 0.06068822 -0.120303005
0.1518195 0.0065753963 -0.03563002 0.026766973 -0.1410524 0.054567724 -0.009217814 0.001956378
-0.014150796 -0.13104917 0.07360519 0.12061674 0.049724333 0.032509893 0.01590342 0.0483805
0.11491023 0.13578792 -0.13819222 -0.0748548 -0.10984906 0.14787063 -0.101532415 -0.07660926
-0.14224403 0.05281136 0.00937166 0.12062298 0.06550228 0.18601705 0.13179897 0.1071648
0.0768042 -0.012449319 -0.124037765 -0.07150146 0.08532996 -0.11814981 0.056388516 0.099149585
0.10443179 0.1290634 -0.118053645 -0.064435 0.1399072 0.0879162 0.041325 0.13978691
-0.09367525 -0.089118086 -0.11697635 0.09903525 0.076191984 -0.13450287 -0.14453395 -0.07568583
0.11975832 -0.1348764 0.10394948 -0.06575408 0.0075722523 -0.0481374 -0.042786557 -0.16263449
-0.055290706 0.12595035 0.1264162 0.08578778 0.15029302 -0.11794131 0.1400732 0.09167319
0.08285632 0.03921252 0.12395024 0.061235186 -0.12774828 0.05261406 0.04126088 0.0858918
-0.05245662 0.094391726 -0.039432447 -0.042316068 -0.02017695 0.1645512 -0.024753455 0.091475084
0.073197976 0.11150682 0.058610346 0.06607761 0.01107374 0.071211 -0.030616073 -0.081405476
0.12907358 0.13801269 -0.08891937 0.090332605 0.107429855 -0.023802612 -0.01958714 0.022383468
-0.06405384 0.098037 -0.026410926 0.0800524 -0.034268297 0.018590905 0.08256959 0.10825099
0.021096306 -0.09948083 0.14611879 0.11548438 -0.03215368 0.13389285 0.111203566 -0.047702454
-0.030928219 0.06656941 -0.06693014 0.04234754 0.06778373 -0.106462285 0.13788398 0.111545816
-0.04326602 0.12698506 0.118145026 -0.027364885 0.06962788 0.0964622 0.107700594 0.064727426
0.106113605 0.024939233 0.025547825 0.0051538395 -0.0032991997 0.03052158 -0.027641 -0.09146108
00000000: bbae f43d cf13 6ebd 8763 9f3c 3a8c eb3c
00000010: c2ec 283d 8b87 a4bd 6007 b6bc faac 8a3c
00000020: 71e5 abbc a020 cdbd f7d0 7b3c ce4a d93d
00000030: e54b b1bd 19df b0bd ea65 5f3c e2ca cc3d
00000040: 4e3e eb3d 2b4a 153e 869b ee3d fb41 71bd
00000050: a44c 1cba 9636 bb3c eb77 0e3c 4b16 abbd
00000060: 67df 45bd 264e 91bd 2222 debc 5ca3 85bc
00000070: 95dd 6fbd b01e a13c c17b 0e3e 7221 053e
00000080: f20f b03d 9cec 123e 8773 633d a149 1f3e
00000090: b41e 47bd 1f82 df3d bc49 bcbd cefb 603c
000000a0: 4cc7 c63d 95dd 1b3e 59b4 fbbd e249 ae3c
000000b0: bb08 743d f173 b83b d216 833d 8490 c5bd
000000c0: 0a83 59bd cb06 36bd 8a6f 3bbc 5c70 ad3d
000000d0: 3349 4fbd 4215 89bd e5dd 6bbd 0688 d13d
000000e0: 2c5c b93d 31eb c6bc 0a7b 293e 73f8 04bd
000000f0: c88c 773c 1168 b03d 5f99 f83d 4986 d93d
00000100: 91ee d33d 47c2 fc3d 420d b43d abdd a8bd
00000110: fa65 ca3d f30b 92bd e647 d93d 4258 0e3c
00000120: 02e2 11bc 2e95 a93d 7b95 843d e039 da3d
00000130: 2e62 193e 0864 cbbd 34e0 613c d9fa 8c3d
00000140: 04de ddbc a4b1 fb3b ee7e 973c 7ed8 d53d
00000150: 9698 1e3d 9000 5d3d e0a1 913d 0cbf 163e
00000160: 5b0e e3bd 41dc 503d 63c2 77bd 97bc 9abc
00000170: b950 183e 0bea e3bc 74e4 92bc c8be c03c
00000180: 1805 8f3d 6581 f03d 60de 363d d9f5 ee3d
00000190: f957 743d 395d 123d 836c e93c 0eda 593c
000001a0: 976f 90bb 6bb2 113e edc1 a2bd 45ef 4c3c
000001b0: c1a8 573d 8f2e 263d 3694 783d 6c61 f6bd
000001c0: 9276 1b3e 6c76 d73b c9f0 11bd 6946 db3c
000001d0: 0a70 10be 6882 5f3d 5006 17bc 9436 003b
000001e0: bed8 67bc c131 06be 51be 963d e905 f73d
000001f0: beab 4b3d 1829 053d e447 823c a22a 463d
00000200: 0e56 eb3d fd0b 0b3e 4382 0dbe 794d 99bd
00000210: 8bf8 e0bd 666b 173e 3af0 cfbd 51e5 9cbd
00000220: 6ba8 11be ba50 583d 978b 193c 2e09 f73d
00000230: 0f26 863d 417b 3e3e 4ff6 063e 3879 db3d
00000240: 854b 9d3d 3af8 4bbc 8307 febd 5c6f 92bd
00000250: 79c1 ae3d 87f8 f1bd a5f7 663d f00e cb3d
00000260: 56e0 d53d 3229 043e 1cc6 f1bd 7ff6 83bd
00000270: d543 0f3e 690d b43d 6744 293d 4d24 0f3e
00000280: cfd8 bfbd 8b83 b6bd 4c91 efbd fed2 ca3d
00000290: 8b0a 9c3d 1fbb 09be b500 14be 2c01 9bbd
000002a0: da43 f53d 0a1d 0abe 77e3 d43d 13aa 86bd
000002b0: a820 f83b b92b 45bd f540 2fbd a889 26be
000002c0: 8278 62bd 21f9 003e 4073 013e 81b1 af3d
000002d0: 6ae6 193e 378b f1bd 596f 0f3e 27bf bb3d
000002e0: 93b0 a93d 4f9d 203d a0d9 fd3d bfd1 7a3d
000002f0: 72d0 02be d781 573d 2b01 293d 0ae8 af3d
00000300: c1dc 56bd 7350 c13d eb83 21bd 9d53 2dbd
00000310: 224a a5bc 1c80 283e c2c7 cabc 4a57 bb3d
00000320: d2e8 953d b05d e43d 6711 703d b353 873d
00000330: a26e 353c 13d7 913d 8fce fabc eab7 a6bd
00000340: dd2b 043e 3353 0d3e 5c1b b6bd 4d00 b93d
00000350: 2f04 dc3d b2fd c2bc 3675 a0bc 895d b73c
00000360: a92e 83bd 9fc7 c83d ba5b d8bc 83f2 a33d
00000370: ea5c 0cbd f44b 983c 3f1a a93d b2b2 dd3d
00000380: 29d2 ac3c 9bbc cbbd 2aa0 153e 1383 ec3d
00000390: 94b3 03bd 351b 093e b2be e33d a663 43bd
000003a0: 2d5d fdbc 8b55 883d ab12 89bd 9d74 2d3d
000003b0: 32d2 8a3d e608 dabd 7531 0d3e 2272 e43d
000003c0: b637 31bd 5f08 023e 05f6 f13d 532c e0bc
000003d0: 1099 8e3d f98d c53d 2192 dc3d d08f 843d
000003e0: 1752 d93d 5d4d cc3c ac49 d13c 8ae1 a83b
000003f0: 6337 58bb 6408 fa3c 616f e2bc f24f bbbd

lstm.weight_hh_l0 f4 [256, 64]
0.03192237 0.12458741 -0.11011104 -0.039226096 -0.04532798 0.1068822 -0.12817676 0.0066534095
-0.013396329 0.006182295 0.01842796 -0.10160851 -0.020970402 0.0139133725 0.03802109 -0.02985897
0.09847645 -0.03604094 -0.106628396 -0.12266193 0.122778885 -0.020751024 -0.046901222 0.0378661
0.04561928 -0.06364913 0.032449488 0.06233352 0.1331992 -0.097114354 0.06398771 -0.044520818
-0.1323271 -0.14467648 -0.01721514 0.060704365 0.105845325 0.05946568 -0.021875722 0.07527206
0.12699632 -0.09854058 -0.111033164 -0.046699233 -0.07325883 0.07213045 -0.11916235 -0.09091468
0.006478947 -0.037153743 -0.0023257984 0.13665794 -0.082473844 -0.13057996 0.1404447 0.07398057
-0.07496286 -0.08263484 0.07519833 0.1208973 0.09201527 0.06960507 0.01549263 -0.017913027
-0.07868036 0.051077664 0.042058468 0.065282516 0.086784974 -0.0036493929 -0.0111246295 0.094660155
-0.04499615 -0.014331218 0.08285652 -0.033162385 -0.11333426 -0.1317811 0.07614326 0.07999689
0.07614044 0.013135346 0.12325967 -0.07107764 0.1063045 -0.014345526 0.075649366 -0.02657364
-0.026613481 -0.06556979 0.14495102 0.096161485 0.09963088 0.10803635 0.029417148 0.1364131
0.08436295 0.122914664 -0.13348727 0.064250045 0.019252276 0.02694104 0.10301896 0.14939477
0.08856607 -0.13914885 -0.06371784 0.08535207 0.088889726 0.08776669 -0.12254966 0.1406527
0.14565285 -0.10280318 0.047217794 -0.020873368 0.016471073 -0.026821256 -0.1142384 -0.035008118
-0.022391306 -0.015917368 -0.022802258 0.06861167 -0.027979953 0.055260368 0.04265982 0.0036145928
0.08919852 0.13045846 0.08532005 -0.03382407 -0.079316504 -0.015318364 -0.109993406 -0.043891154
-0.10344592 0.030072775 0.14349155 -0.013893316 -0.023304394 -0.08439741 0.114620075 0.15783335
-0.03605007 0.032556243 -0.0801223 -0.022968397 -0.05358298 -0.030693015 0.024464738 0.025810152
-0.045099903 -0.012962098 -0.11467643 -0.10502436 -0.0012849785 0.099272765 0.00020177952 0.015718754
0.04626435 -0.036751 -0.07930292 0.1260158 0.1688148 -0.14696708 0.014980868 -0.064903505
-0.033027545 -0.0488198 0.06782242 -0.0709642 0.11613917 -0.12966593 0.082276426 -0.1545079
-0.06770275 -0.04564163 0.10364059 0.13315752 -0.07182416 0.086470015 -0.025509322 0.11749442
-0.049631834 0.113849275 -0.025664829 0.057333782 -0.035861973 -0.056706913 0.041050833 0.13283424
0.024586966 0.025299724 -0.08676443 0.117563404 -0.11058241 -0.07642885 0.024897793 -0.042441968
-0.16174002 0.0818689 0.15799314 0.018838413 -0.07795722 -0.00060323713 -0.0321109 0.047063645
-0.037738077 0.08522377 0.07154913 -0.09047948 0.0018216424 -0.022581734 -0.08615226 0.16142535
0.095335506 -0.06107361 0.14254373 -0.17974037 0.115614094 0.10737521 -0.02777676 0.05119308
0.03419704 0.12308995 -0.05721521 0.1522927 0.06429507 0.004372771 -0.14946632 -0.03061973
0.1048689 -0.12708515 0.029712882 -0.13337743 -0.026644867 0.016471637 -0.06457681 0.03323449
-0.094214514 0.07857863 0.012027499 0.052428816 -0.072222 0.026593972 -0.066088445 0.030276544
-0.059371274 0.0125882635 0.12250988 -0.049367353 0.05614369 0.031058589 0.0813079 0.09190225
00000000: 08c1 023d af27 ff3d e681 e1bd 8bab 20bd
00000010: d5a9 39bd 0ee5 da3d c540 03be d804 da3b
00000020: 477c 5bbc d994 ca3b 3cf6 963c 1f18 d0bd
00000030: 1fca abbc eaf4 633c 01bc 1b3d cc9a f4bc
00000040: 05ae c93d aa9f 13bd fd5f dabd 2e36 fbbd
00000050: 7f73 fb3d 0dfe a9bc 7f1b 40bd 7c19 1b3d
00000060: 48db 3a3d 7a5a 82bd c1e9 043d 6f51 7f3d
00000070: 5f65 083e e4e3 c6bd fd0b 833d 765b 36bd
00000080: c180 07be 1226 14be c406 8dbc 24a5 783d
00000090: 6fc5 d83d 4992 733d b734 b3bc 3d28 9a3d
000000a0: 530b 023e a5cf c9bd 5b65 e3bd b247 3fbd
000000b0: ba08 96bd 21b9 933d 640b f4bd 7a31 babd
000000c0: 594d d43b 862e 18bd 6c6c 18bb 0ff0 0b3e
000000d0: 0ce8 a8bd c1b6 05be bcd0 0f3e 2083 973d
000000e0: 2186 99bd 743c a9bd 9501 9a3d 0199 f73d
000000f0: 8072 bc3d 1a8d 8e3d cdd4 7d3c 57be 92bc
00000100: 2b23 a1bd d036 513d 8045 2c3d d7b2 853d
00000110: 52bc b13d a72a 6fbb 1444 36bc 2fdd c13d
00000120: e24d 38bd 7ccd 6abc aeb0 a93d 48d5 07bd
00000130: cb1b e8bd a0f1 06be fff0 9b3d 69d5 a33d
00000140: 85ef 9b3d a235 573c 916f fc3d 2791 91bd
00000150: 2cb6 d93d 7f09 6bbc 0eee 9a3d f6b0 d9bc
00000160: 8404 dabc 7449 86bd 0a6e 143e 50f0 c43d
00000170: 460b cc3d 2942 dd3d 3bfc f03c e0af 0b3e
00000180: 7bc6 ac3d afba fb3d e3b0 08be 8795 833d
00000190: f3b6 9d3c 75b3 dc3c 9bfb d23d f1fa 183e
000001a0: 2162 b53d 097d 0ebe 807e 82bd 11cd ae3d
000001b0: d10b b63d 06bf b33d 51fb fabd 4307 103e
000001c0: 0526 153e 798a d2bd 7267 413d a0fe aabc
000001d0: 58ee 863c 40b8 dbbc d2f5 e9bd ac64 0fbd
000001e0: f96d b7bc 2465 82bc cdcb babc 4684 8c3d
000001f0: 3736 e5bc b258 623d 10bc 2e3d cee2 6c3b
00000200: b7ad b63d e796 053e 47bc ae3d 1c8b 0abd
00000210: b170 a2bd e0f9 7abc 3944 e1bd 36c7 33bd
00000220: 74db d3bd 2e5b f63c 73ef 123e caa0 63bc
00000230: dbe8 bebc 8dd8 acbd eebd ea3d 119f 213e
00000240: 3da9 13bd b259 053d 2917 a4bd 3828 bcbc
00000250: d479 5bbd eb6f fbbc 466a c83c d06f d33c
00000260: adba 38bd fb5e 54bc 7adb eabd 0317 d7bd
00000270: b96c a8ba 854f cb3d c794 5339 9ec4 803c
00000280: b07f 3d3d 3788 16bd 9269 a2bd 490a 013e
00000290: c9dd 2c3e 8a7e 16be 5172 753c 21ec 84bd
000002a0: e447 07bd 45f7 47bd 7be6 8a3d ae55 91bd
000002b0: 60da ed3d 25c7 04be 8b80 a83d 5237 1ebe
000002c0: bda7 8abd b8f2 3abd 8541 d43d 725a 083e
000002d0: 8c18 93bd 3117 b13d edf8 d0bc eaa0 f03d
000002e0: c04a 4bbd cf29 e93d 0c3f d2bc d4d6 6a3d
000002f0: 01e4 12bd 8245 68bd eb24 283d b305 083e
00000300: 9b6a c93c 5e41 cf3c 8db1 b1bd 15c5 f03d
00000310: 0879 e2bd bb86 9cbd 75f6 cb3c a1d7 2dbd
00000320: 2d9f 25be e2aa a73d f4c8 213e 0453 9a3c
00000330: 09a8 9fbd 8f22 1eba b886 03bd cfc5 403d
00000340: 3e93 1abd cd89 ae3d 5a88 923d 4e4d b9bd
00000350: 2dc4 ee3a 54fd b8bc 9970 b0bd b04c 253e
00000360: 433f c33d 5228 7abd fcf6 113e dc0d 38be
00000370: 15c7 ec3d 89e7 db3d 168c e3bc d6af 513d
00000380: 3212 0c3d 9516 fc3d 7f5a 6abd 9ef2 1b3e
00000390: 22ad 833d 7649 8f3b b30d 19be 3ad6 fabc
000003a0: 81c5 d63d 9c22 02be 6e68 f33c 1894 08be
000003b0: 5646 dabc 87ef 863c d940 84bd e320 083d
000003c0: 8af3 c0bd d5ed a03d fd0e 453c 99bf 563d
000003d0: 21e9 93bd 9adb d93c 6159 87bd 8406 f83c
000003e0: 4b2f 73bd 013f 4e3c 76e6 fa3d 6c35 4abd
000003f0: edf6 653d 956e fe3c c284 a63d 3f37 bc3d

lstm.bias_ih_l0 f4 [256]
0.06488233 0.059557524 -0.0014020333 0.008857362 0.035590712 0.16136329 0.0901135 -0.012836684
0.11708929 0.015029551 -0.08049611 -0.090862386 0.04032549 0.007158041 -0.033579715 0.13243435
-0.09432965 -0.08567742 -0.04045329 0.021374524 0.00068516174 0.06508516 0.03460138 -0.023894604
0.03824681 0.032104295 -0.008408447 -0.031839877 0.15899725 0.020814475 -0.07872226 -0.036496088
-0.073510855 -0.021323126 0.022181224 0.069324285 -0.0622794 0.11839376 -0.0070449077 -0.058625575
0.13863254 0.0041439566 0.1685114 -0.07686038 0.07760206 0.099709466 0.029378286 0.0010742163
0.02702371 0.032876607 0.08638198 -0.07948853 -0.042716127 0.15272889 -0.012458426 -0.029445935
-0.00965812 -0.021478932 0.027181761 0.0035034937 0.014791125 -0.068481795 0.030233677 0.14406632
0.13738142 -0.07949918 0.03941076 0.17693946 -0.08519366 0.08252361 0.022087606 -0.087995626
-0.07053985 0.08233394 0.0023910736 0.14216255 0.067737624 0.12126279 0.06695493 0.025996977
-0.0053835534 -0.08598651 -0.051598772 -0.04879092 -0.10077917 0.006737222 0.05036168 0.001471972
-0.005972411 0.02305165 0.017838476 -0.078019135 -0.04151253 0.021959275 0.15316562 -0.10274153
0.09488507 0.11713976 0.040787674 0.07513217 0.046445847 0.14235593 0.072253086 -0.040752985
0.1554908 0.14821208 -0.013212248 -0.057650913 -0.1009616 0.05945689 0.00067687547 0.07861556
0.050742757 0.043220356 0.15372892 0.0075007556 -0.08432708 0.1549433 -0.11071917 0.062739015
0.14278013 0.057579003 0.06982866 0.11028316 -0.08840765 0.042047083 0.12606987 -0.040368497
0.13150561 -0.070936166 0.048535015 -0.008413319 0.014795414 0.11251319 -0.015605445 -0.023440283
-0.07931495 -0.041690372 0.06182223 -0.057738174 -0.021206731 0.14194557 0.006259157 0.11827816
-0.100901894 0.04895095 0.090641305 -0.07529931 -0.089976855 0.062715605 -0.05896942 0.077662066
0.15238097 0.11869859 -0.0045532784 -0.046304986 0.124246076 0.06906947 0.13444008 -0.05449553
-2.3831686e-05 -0.017213445 -0.035657704 -0.017629243 0.0764828 -0.077473655 0.09561543 0.07983851
0.13760707 -0.1386523 -0.059967253 0.1126852 0.010070721 -0.00017609798 -0.037589863 0.00950798
-0.015366146 0.05832942 0.020091183 -0.00091366237 0.119486436 0.006197167 -0.03146689 0.103376396
0.106730655 0.09579778 0.15019402 0.0009550612 -0.077919126 0.0046963166 0.095095634 0.13318126
-0.033148844 0.0751352 0.13582273 0.0691644 -0.00952381 0.0948681 0.17141429 -0.117587104
-0.04028237 0.017919991 -0.14208011 0.10562704 -0.015141291 -0.029460799 -0.0373179 0.19703485
0.06876818 0.056466714 0.1454633 0.09138213 -0.034909002 -0.01710081 0.03994015 0.103473276
0.10278646 0.16311434 0.08967044 0.08964709 0.16062441 -0.034483198 0.013823053 0.060463827
0.06608971 0.08127088 0.11354677 0.028001264 0.11461199 -0.003339966 -0.036646474 0.06341995
-0.041643057 0.117346354 0.18226278 0.028832864 0.08827372 0.051601067 0.026031949 0.19565652
-0.014170268 -0.0052454364 0.14085382 0.071281694 0.09845977 0.10464798 0.17051189 -0.06258207
-0.07104325 0.011985973 -0.011932318 0.1615252 0.0629447 -0.03654667 -0.0043825633 0.1279921
00000000: 07e1 843d 97f2 733d 6ec4 b7ba 781e 113c
00000010: 91c7 113d 6b3c 253e 6d8d b83d f450 52bc
00000020: 82cc ef3d 823e 763c 25db a4bd 0f16 babd
00000030: 572c 253d 008e ea3b e28a 09bd df9c 073e
00000040: e72f c1bd a577 afbd 59b2 25bd a019 af3c
00000050: 6d9c 333a 5e4b 853d 2dba 0d3d 9ebe c3bc
00000060: b0a8 1c3d cb7f 033d 95c3 09bc 886a 02bd
00000070: 2dd0 223e 1e83 aa3c 2339 a1bd ec7c 15bd
00000080: dc8c 96bd d6ad aebc 66b5 b53c e4f9 8d3d
00000090: af18 7fbd 6d78 f23d f8d8 e6bb 5f21 70bd
000000a0: b0f5 0d3e 07ca 873b 418e 2c3e fa68 9dbd
000000b0: d4ed 9e3d 7a34 cc3d bbaa f03c b8cc 8c3a
000000c0: d460 dd3c 9fa9 063d 09e9 b03d e2ca a2bd
000000d0: 1bf7 2ebd f664 1c3e 6d1e 4cbc 9a38 f1bc
000000e0: 173d 1ebc 96f4 afbc 49ac de3c df9a 653b
000000f0: 7a56 723c 2f40 8cbd 9eac f73c 1f86 133e
00000100: b7ad 0c3e 77d0 a2bd 2d6d 213d 9e2f 353e
00000110: 037a aebd 2302 a93d 11f1 b43c 0d37 b4bd
00000120: 3277 90bd b29e a83d 8fb3 1c3b 0f93 113e
00000130: 06ba 8a3d a058 f83d ab1f 893d 9df7 d43c
00000140: 8568 b0bb b219 b0bd 3c59 53bd fdd8 47bd
00000150: 4f65 cebd eac3 dc3b 0d48 4e3d 2fef c03a
00000160: 37b4 c3bb d0d6 bc3c ff21 923c 7fc8 9fbd
00000170: 0b09 2abd f0e3 b33c 73d7 1c3e 276a d2bd
00000180: 1b53 c23d f8e6 ef3d fa10 273d e5de 993d
00000190: 003e 3e3d c1c5 113e 6df9 933d 9aec 26bd
000001a0: fb38 1f3e e8c4 173e 2f78 58bc 5d23 6cbd
000001b0: f5c4 cebd 1189 733d 5870 313a 3201 a13d
000001c0: a3d7 4f3d d407 313d 1d6b 1d3e e6c8 f53b
000001d0: adb3 acbd 75a9 1e3e bbc0 e2bd 507d 803d
000001e0: f434 123e f6d7 6b3d 5402 8f3d 23dc e13d
000001f0: 120f b5bd 9039 2c3d 7618 013e 7059 25bd
00000200: 68a9 063e fb46 91bd a7cc 463d 04d8 09bc
00000210: 7768 723c 516d e63d fbad 7fbc d605 c0bc
00000220: e06f a2bd 86c3 2abd 4f39 7d3d dd7e 6cbd
00000230: bdb9 adbc 2e5a 113e 9d19 cd3b d23b f23d
00000240: a7a5 cebd cb80 483d 26a2 b93d 8636 9abd
00000250: c945 b8bd 0a71 803d eb89 71bd 4a0d 9f3d
00000260: c209 1c3e 3f18 f33d ab33 95bb 4caa 3dbd
00000270: ba74 fe3d 4b74 8d3d a9aa 093e b436 5fbd
00000280: 28ea c7b7 3603 8dbc d00d 12bd 346b 90bc
00000290: 04a3 9c3d 82aa 9ebd 06d2 c33d 5f82 a33d
000002a0: dee8 0c3e defa 0dbe 39a0 75bd 80c7 e63d
000002b0: aaff 243c f1a6 38b9 d4f7 19bd 5cc7 1b3c
000002c0: 4ac2 7bbc d4ea 6e3d 4496 a43c d882 6fba
000002d0: 4eb5 f43d 9b11 cb3b 6de3 00bd 01b7 d33d
000002e0: 9a95 da3d a031 c43d 76cc 193e 125d 7a3a
000002f0: 1094 9fbd 8fe3 993b 80c1 c23d ab60 083e
00000300: 15c7 07bd 7ce0 993d 1d15 0b3e 11a6 8d3d
00000310: c109 1cbc 354a c23d 3a87 2f3e 82d1 f0bd
00000320: 20ff 24bd f2cc 923c 737d 11be fd52 d83d
00000330: 2d13 78bc c657 f1bc a8da 18bd 81c3 493e
00000340: 55d6 8c3d a449 673d 55f4 143e 8e26 bb3d
00000350: befc 0ebd ff16 8cbc 4898 233d cce9 d33d
00000360: b581 d23d 7207 273e 23a5 b73d e598 b73d
00000370: ba7a 243e 413e 0dbd 167a 623c eba8 773d
00000380: 0b5a 873d 5971 a63d 358b e83d e862 e53c
00000390: b1b9 ea3d 55e3 5abb 9d1a 16bd 52e2 813d
000003a0: e991 2abd 4953 f03d 18a3 3a3e e632 ec3c
000003b0: dac8 b43d a45b 533d f440 d53c 2f5a 483e
000003c0: 692a 68bc e9e1 abbb fc3b 103e 23fc 913d
000003d0: 47a5 c93d ae51 d63d ab9a 2e3e 072b 80bd
000003e0: 207f 91bd d160 443c c57f 43bc dd66 253e
000003f0: 27e9 803d f6b1 15bd 9b9b 8fbb 5c10 033e

lstm.bias_hh_l0 f4 [256]
0.019460285 0.046262447 0.0535452 -0.060084704 0.070042685 0.112425715 0.13963974 -0.08498799
0.008079272 0.14535166 -0.12854785 -0.06547962 0.114850126 0.1410626 0.09281918 0.13363801
0.08433335 -0.08161605 0.048090458 0.111571506 0.09321831 0.1235359 -0.00060054683 -0.028067827
0.04381747 0.057082813 -0.059460223 0.028520618 -0.030317012 -0.124154925 0.034820862 -0.070170805
0.10195665 0.097483896 0.1269844 -0.0012431591 0.14177243 -0.022588667 -0.0056449543 -0.024108818
0.12934603 -0.038766034 0.13809748 0.012642316 -0.102258086 -0.03315475 -0.08825368 0.16478379
0.1664445 0.054637153 -0.046646092 0.026083427 0.10163741 -0.041204907 -0.070768096 0.11537287
-0.04073964 -0.053229433 -0.05989292 0.038913444 -0.05385618 -0.024803726 0.13587622 -0.089037776
0.06498086 -0.06795784 0.07099245 0.0720238 0.083111145 0.07375982 0.09723394 0.04271935
0.13193716 0.012179699 0.011733881 0.105502166 -0.019050986 -0.03269729 0.10550194 0.037520688
0.09678279 -0.08282973 0.15146035 0.10156337 0.045387425 0.0020381962 0.10999642 0.020249318
0.09887833 -0.030660115 0.10967118 0.0063959714 0.07551259 -0.03154745 0.0046026926 -0.04339794
0.10939815 0.049837038 0.076398104 -0.009182138 0.15383883 0.026565097 0.1666372 0.09604789
0.09630343 0.006699402 0.058266964 -0.076071806 0.08571594 0.05021795 -0.016335025 0.011070271
0.07899959 0.0018956633 -0.043563664 0.047905415 -0.04739104 0.16298911 -0.05162403 -0.023386247
-0.055752423 -0.113541044 0.11942 -0.04965284 -0.00663509 0.093018204 -0.02027762 0.08386525
0.11681322 0.13759819 -0.103224695 -0.057103597 0.008244229 -0.04294864 -0.020625783 0.12557583
0.08640968 -0.0035455972 0.07130093 0.10615785 -0.008342657 0.165425 -0.028169854 -0.09275299
-0.13456835 0.05101305 -0.026978718 -0.073501006 -0.15668793 0.015593689 0.023248011 0.04576157
0.007981514 0.15576266 0.12632331 0.097002946 -0.022857169 0.064787135 0.079073794 0.041360386
0.076769955 -0.15270007 0.034249507 0.035569154 0.040046997 0.026171483 -0.13146356 -0.00460313
-0.027091919 0.05235855 0.14047356 0.092249684 0.069825925 -0.033917576 -0.006742407 -0.09528125
-0.104888566 -0.0076403115 0.017438345 0.063785166 -0.047787584 -0.14507021 0.11721509 -0.014922396
-0.05188311 -0.065614514 -0.07418671 0.013470472 -0.05815096 0.055883095 -0.013347938 0.06421233
0.043218598 0.017582217 -0.0028202843 0.08900193 0.04530276 -0.03166202 0.07665685 -0.16113983
0.07415673 0.038832407 -0.14588036 -0.043441657 0.15424533 0.0690613 0.06065949 0.15271889
0.08584014 0.14656618 -0.026612598 -0.03603087 0.03650068 -0.017982597 -0.06645759 0.10131622
0.026171349 0.19212782 0.017495358 0.017380342 0.1511422 -0.122738816 0.104344234 -0.101436295
0.1390156 0.12462405 0.10887819 0.04235442 0.17611258 -0.021466188 0.0033003015 0.18684912
0.03392794 -0.077195734 0.18292002 0.0913179 -0.049211048 0.14700161 -0.0455308 0.17707355
-0.014297284 0.04221986 -0.08739219 0.09333643 0.1844019 -0.034130745 0.09369788 -0.05697968
0.047856174 -0.075426176 -0.09874112 0.16681983 0.12804057 0.13161823 0.079507045 0.08310308
00000000: 2d6b 9f3c b17d 3d3d 3652 5b3d 611b 76bd
00000010: 8a72 8f3d 743f e63d b8fd 0e3e 2f0e aebd
00000020: ec5e 043c 11d7 143e 0ca2 03be 2e1a 86bd
00000030: 8b36 eb3d b772 103e fb17 be3d 67d8 083e
00000040: f7b6 ac3d 5126 a7bd 80fa 443d 9a7f e43d
00000050: 3ee9 be3d 6400 fd3d 046e 1dba 80ee e5bc
00000060: f379 333d abcf 693d 908c 73bd 12a4 e93c
00000070: 625b f8bc f044 febd 52a0 0e3d b6b5 8fbd
00000080: a6ce d03d a3a5 c73d 3308 023e 7ff1 a2ba
00000090: cb2c 113e de0b b9bc 4ff9 b8bb db7f c5bc
000000a0: 4973 043e 22c9 1ebd 6d69 0d3e b721 4f3c
000000b0: b06c d1bd 46cd 07bd 58be b4bd 15bd 283e
000000c0: 6d70 2a3e 35cb 5f3d f90f 3fbd e9ac d53c
000000d0: 4627 d03d 7ac6 28bd ddee 90bd 9c48 ec3d
000000e0: 9cde 26bd 1b07 5abd 4752 75bd b463 1f3d
000000f0: 4c98 5cbd 2f31 cbbc 2323 0b3e 7059 b6bd
00000100: af14 853d 7b2d 8bbd 7d64 913d 3781 933d
00000110: 2d36 aa3d 630f 973d 9722 c73d 7cfa 2e3d
00000120: 891a 073e 5c8d 473c 773f 403c 8511 d83d
00000130: d010 9cbc 98ed 05bd 6711 d83d 4baf 193d
00000140: 0e36 c63d a2a2 a9bd 6c18 1b3e 7500 d03d
00000150: 2ae8 393d 4293 053b ce45 e13d e6e1 a53c
00000160: b980 ca3d ec2a fbbc 499b e03d 4c95 d13b
00000170: 58a6 9a3d e637 01bd 2fd2 963b 0ac2 31bd
00000180: 230c e03d ec21 4c3d 9c76 9c3d ae70 16bc
00000190: ed87 1d3e 0c9f d93c f1a2 2a3e c2b4 c43d
000001a0: bc3a c53d a886 db3b 57a9 6e3d 89cb 9bbd
000001b0: d78b af3d 56b1 4d3d 08d1 85bc 1560 353c
000001c0: 89ca a13d e877 f83a d06f 32bd 7838 443d
000001d0: 1b1d 42bd 9ee6 263e b873 53bd 8494 bfbc
000001e0: a75c 64bd 3588 e8bd 7992 f43d c760 4bbd
000001f0: 2b6b d9bb 5480 be3d 401d a6bc 8bc1 ab3d
00000200: c53b ef3d 8ae6 0c3e 7867 d3bd 76e5 69bd
00000210: cd12 073c eaea 2fbd 67f7 a8bc f396 003e
00000220: 8ff7 b03d 405d 68bb 3906 923d 4969 d93d
00000230: a4af 08bc 2c65 293e 77c4 e6bc 48f5 bdbd
00000240: 49cc 09be 0ff3 503d 7902 ddbc b287 96bd
00000250: cd72 20be ac7c 7f3c 9d72 be3c 7c70 3b3d
00000260: e5c4 023c 3f80 1f3e e65a 013e 7ba9 c63d
00000270: f53e bbbc 1eaf 843d 71f1 a13d 8269 293d
00000280: 9139 9d3d 685d 1cbe 3649 0c3d f6b0 113d
00000290: 5208 243d 9465 d63c 629e 06be dad5 96bb
000002a0: dfef ddbc eb75 563d 4dd8 0f3e 67ed bc3d
000002b0: e500 8f3d 28ed 0abd 69ef dcbb d122 c3bd
000002c0: d1cf d6bd 945b fabb dcda 8e3c cca1 823d
000002d0: eabc 43bd 498d 14be 770e f03d 117d 74bc
000002e0: 6283 54bd e760 86bd 34ef 97bd 41b3 5c3c
000002f0: b32f 6ebd ace5 643d 4fb1 5abc c181 833d
00000300: fc05 313d 9508 903c 85d4 38bb a546 b63d
00000310: 638f 393d 09b0 01bd 44fe 9c3d d701 25be
00000320: 7cdf 973d bb0e 1f3d a961 15be e1ef 31bd
00000330: 7df2 1d3e 0370 8d3d 1676 783d 5762 1c3e
00000340: f5cc af3d 7215 163e aa02 dabc 1b95 13bd
00000350: bd81 153d 3d50 93bc eb1a 88bd e17e cf3d
00000360: 4c65 d63c 28bd 443e 6d52 8f3c 3861 8e3c
00000370: 05c5 1a3e 7d5e fbbd 6eb2 d53d d5bd cfbd
00000380: 1b5a 0e3e e53a ff3d 87fb de3d d47b 2d3d
00000390: db56 343e dcd9 afbc df49 583b 6055 3f3e
000003a0: 06f8 0a3d cc18 9ebd 634f 3b3e e104 bb3d
000003b0: 8691 49bd 9787 163e 817e 3abd c552 353e
000003c0: 283f 6abc bbee 2c3d adfa b2bd 2c27 bf3d
000003d0: dad3 3c3e aecc 0bbd ade4 bf3d 8663 69bd
000003e0: d604 443d 0a79 9abd c938 cabd d1d2 2a3e
000003f0: 111d 033e eec6 063e 97d4 a23d f331 aa3d

lstm.weight_ih_l1 f4 [256, 64]
0.032931153 -0.07421299 -0.10145237 -0.019093294 -0.0055786655 -0.055493373 -0.069691025 -0.11189304
0.035402115 0.01053857 0.09818154 0.09514976 -0.17155205 0.05987066 -0.0017887974 -0.019948374
0.09846211 -0.037624795 0.035946712 0.03417547 0.1441729 -0.1675343 0.15056048 -0.00057946634
0.16489425 0.05662547 0.104629554 -0.15260771 -0.022894016 -0.034962866 0.03887716 -0.07617444
-0.08282005 -0.16073245 0.06721211 0.072106995 -0.06434197 -0.047576763 -0.16054514 -0.14149942
-0.0026727866 0.0061331457 0.13284683 -0.0030634126 0.010973953 -0.12284864 -0.10042526 -0.09439595
0.040554687 -0.060483437 0.035579637 0.16426082 0.134772 0.054280598 0.13177541 0.14505461
0.04910154 0.09006424 -0.057717066 0.1579876 0.08193217 0.087954216 0.13833597 -0.028240548
0.008774789 0.0066155517 0.10817454 -0.08322724 -0.07517647 -0.10715979 0.009664467 -0.012390439
-0.07382287 -0.007195945 0.07304876 0.10873243 -0.09230951 0.096339874 0.11981225 0.11856839
0.07112468 0.022318479 -0.057559714 0.07117686 -0.08651086 0.11362901 -0.006808846 0.08508679
0.009775947 -0.087652735 -0.078174345 0.11406947 -0.0452137 -0.08932282 0.08397601 -0.063898414
0.032327186 0.023860382 0.088736676 -0.04410463 0.08983731 -0.13898128 -0.12440539 -0.09499509
0.101000085 0.02197275 0.0474935 0.060945377 0.05346371 -0.10580523 -0.009316322 -0.11057957
0.02421797 -0.057333063 0.015341485 -0.12760985 -0.035161737 -0.07180955 -0.052820794 0.059568457
0.056887206 -0.10797555 -0.056004845 -0.059268877 -0.03566419 -0.04896822 0.069439225 -0.055221416
0.08570431 0.13338256 -0.13729925 0.08917311 0.068370685 0.094621174 -0.09064336 -0.022072332
-0.04096272 0.15325612 -0.03425168 -0.040227614 -0.11726295 0.04756437 0.09142638 -0.08422168
-0.10307047 -0.07208868 -0.022189545 0.08085337 0.07318774 -0.06323841 0.0015605156 0.11420917
0.13114198 -0.0711192 -0.10356837 -0.018861141 0.13218662 0.07708134 -0.016783189 -0.04643826
0.02160752 -0.10297201 0.08098251 0.051316816 0.15265699 -0.106686145 0.04340279 0.022671027
0.038412295 0.06794782 -0.055720363 -0.04603982 0.036308587 -0.11134896 0.021617545 -0.024181724
-0.029894931 0.11431069 0.06226478 -0.034941312 0.0071867956 -0.067949824 0.07952514 -0.0841373
-0.057680055 -0.09608128 -0.10613239 -0.018507104 -0.13327323 -0.02061315 -0.028149733 0.08678993
0.1295221 -0.0027691922 -0.14849429 0.058850467 -0.005289929 0.055719804 -0.014160875 0.113787696
-0.07704779 0.02589623 -0.0071467506 -0.097331494 -0.14639758 0.07451601 0.116509065 0.18903117
0.041904144 0.13111542 -0.10376271 -0.059064887 -0.12692699 -0.12674457 -0.039788175 0.068887964
0.10311556 -0.013329036 0.06346888 0.07303268 0.12697981 -0.073274486 -0.07873592 0.022947608
-0.08180987 -0.11876436 -0.078575514 0.054677144 -0.047825906 -0.11341587 -0.05276744 -0.044646233
-0.008076213 0.023461765 0.0439435 0.13419439 -0.07970109 0.025910085 0.012740455 -0.18392977
0.0036177307 -0.010985025 0.1008919 0.15598132 0.09294157 -0.08795479 0.08365289 0.04341788
-0.1054726 0.036979645 0.008164015 0.07904802 -0.12188296 0.079419084 -0.0320776 0.10360813
00000000: d1e2 063d fbfc 97bd 43c6 cfbd 8a69 9cbc
00000010: 3dcd b6bb 054d 63bd 2bba 8ebd 2e28 e5bd
00000020: cf01 113d f7a9 2c3c 6713 c93d e1dd c23d
00000030: 57ab 2fbe f03a 753d 1576 eaba c66a a3bc
00000040: 81a6 c93d 751c 1abd dc3c 133d 94fb 0b3d
00000050: 10a2 133e 1d8e 2bbe 872c 1a3e 54e7 17ba
00000060: 0ada 283e 1cf0 673d 0548 d63d 3245 1cbe
00000070: 3b8c bbbc 3935 0fbd a83d 1f3d 5801 9cbd
00000080: 8f9d a9bd 0c97 24be 81a6 893d d5ac 933d
00000090: b9c5 83bd dadf 42bd f265 24be 39e5 10be
000000a0: eb29 2fbb 8ef8 c83b 0009 083e 89c3 48bb
000000b0: 18cc 333c 1198 fbbd c2ab cdbd aa52 c1bd
000000c0: ac1c 263d 7bbd 77bd f4bb 113d fd33 283e
000000d0: ac01 0a3e 5555 5e3d 22f0 063e 3289 143e
000000e0: b21e 493d 9a73 b83d bb68 6cbd 80c7 213e
000000f0: 0ecc a73d 5721 b43d f2a7 0d3e b958 e7bc
00000100: 22c4 0f3c 45c7 d83b 9d8a dd3d 0b73 aabd
00000110: 1ff6 99bd 9876 dbbd b657 1e3c 4501 4bbc
00000120: 7230 97bd f6cb ebbb 979a 953d 1caf de3d
00000130: c50c bdbd d74d c53d 2060 f53d fcd3 f23d
00000140: d1a9 913d 3ed5 b63c bcc3 6bbd 2cc5 913d
00000150: 9b2c b1bd 54b6 e83d bd1c dfbb fc41 ae3d
00000160: 4b2b 203c 4783 b3bd df19 a0bd 419d e93d
00000170: 0032 39bd e2ee b6bd 9dfb ab3d 2cdd 82bd
00000180: 8369 043d d976 c33c 93bb b53d 0ea7 34bd
00000190: a0fc b73d 1c51 0ebe 41c8 febd c98c c2bd
000001a0: 22d9 ce3d 3200 b43c 8b88 423d dca1 793d
000001b0: c3fc 5a3d 6ab0 d8bd 7da3 18bc 8b77 e2bd
000001c0: c464 c63c 13d6 6abd da5a 7b3c 28ac 02be
000001d0: c105 10bd e310 93bd 9e5a 58bd 0efe 733d
000001e0: 8f02 693d 4922 ddbd 5665 65bd ecc3 72bd
000001f0: 9d14 12bd e692 48bd 2736 8e3d da2f 62bd
00000200: be85 af3d 7095 083e 2d98 0cbe 64a0 b63d
00000210: ee05 8c3d bfc8 c13d 3aa3 b9bd 09d1 b4bc
00000220: 86c8 27bd 2cef 1c3e 7d4b 0cbd b6c5 24bd
00000230: 8f27 f0bd dbd2 423d c13d bb3d 6b7c acbd
00000240: 9c16 d3bd 3ba3 93bd d9c6 b5bc 7496 a53d
00000250: 74e3 953d 2483 81bd 378a cc3a 7fe6 e93d
00000260: 154a 063e f1a6 91bd a71b d4bd ae82 9abc
00000270: ee5b 073e d2dc 9d3d e67c 89bc 0b36 3ebd
00000280: 4102 b13c fde2 d2bd 28da a53d 9531 523d
00000290: 1d52 1c3e 447e dabd 20c7 313d 97b8 b93c
000002a0: 3656 1d3d 3a28 8b3d 093b 64bd 4094 3cbd
000002b0: 50b8 143d ec0a e4bd 4717 b13c c018 c6bc
000002c0: 37e6 f4bc b91b ea3d 5b09 7f3d 9f1e 0fbd
000002d0: 367f eb3b 4729 8bbd 14de a23d 2d50 acbd
000002e0: ec41 6cbd 43c6 c4bd f05b d9bd 369c 97bc
000002f0: c778 08be e9dc a8bc 459a e6bc ebbe b13d
00000300: 71a1 043e 567b 35bb e30e 18be 300d 713d
00000310: 2457 adbb 733a 643d 0403 68bc 8609 e93d
00000320: 3bcb 9dbd 5524 d43c 4a2f eabb bc55 c7bd
00000330: 3fe9 15be da9b 983d 4e9c ee3d 6391 413e
00000340: aea3 2b3d 1f43 063e 8b81 d4bd 06ee 71bd
00000350: 26f9 01be 54c9 01be edf8 22bd 2215 8d3d
00000360: 402e d33d 0762 5abc f9fb 813d 2892 953d
00000370: ff06 023e ef10 96bd 4c40 a1bd 9ffc bb3c
00000380: ef8b a7bd bb3a f3bd 33ec a0bd 24f5 5f3d
00000390: 19e5 43bd 9446 e8bd ac22 58bd f8de 36bd
000003a0: 1852 04bc e332 c03c 19fe 333d 416a 093e
000003b0: 533a a3bd 6341 d43c 57bd 503c 1658 3cbe
000003c0: 7317 6d3b 89fa 33bc 6aa0 ce3d 91b9 1f3e
000003d0: 2658 be3d a421 b4bd 3552 ab3d f2d6 313d
000003e0: 0502 d8bd f877 173d 5cc2 053c eee3 a13d
000003f0: c69d f9bd 79a6 a23d cd63 03bd 8030 d43d

lstm.weight_hh_l1 f4 [256, 64]
-0.10152671 0.08009159 -0.07535008 0.0049481676 -0.002157347 -0.056194987 -0.05408854 -0.12188457
-0.054013755 -0.0070780283 0.07333835 -0.14088556 -0.14482711 -0.121970534 0.049977317 0.02383688
-0.06627731 -0.14660938 0.06871434 0.09502326 0.14394139 -0.150836 0.08682458 -0.049256153
-0.11140584 -0.07469297 0.013349767 0.112468906 -0.015297025 -0.022258237 -0.033288345 0.08189276
-0.06502093 0.16554055 0.0854502 0.00078051054 -0.07475029 -0.06759172 0.070019946 0.13704179
0.16176955 -0.12788412 -0.12650837 0.11932036 0.013086384 -0.024629852 0.044813424 0.067382336
0.12849018 0.013121213 0.01866386 -0.105673864 -0.1279005 0.06650468 0.11830803 0.056487232
0.06705487 -0.06537089 -0.07342032 -0.0188536 -0.035809148 0.11489201 -0.0134070255 -0.02758777
0.046125855 0.041329876 0.035710026 -0.13621596 -0.025914911 -0.053152427 -0.13008848 0.06988538
-0.09792622 -0.098960064 -0.1550357 0.0894099 -0.13500312 -0.087439634 -0.09010327 0.045544162
0.10397906 -0.005596449 0.15371595 0.06173973 0.031105941 -0.13424875 0.06439884 0.13733886
-0.08566262 -0.07658896 -0.0019552982 0.018083753 -0.0054027396 0.09131363 0.082532294 -0.09471115
0.06637884 -0.08939464 0.0056732777 0.03686491 0.04778406 -0.0162946 0.14512913 0.063634075
0.05966251 -0.05990615 -0.07386103 0.09550155 0.03938351 -0.04626043 0.09405394 0.021513045
0.014935683 -0.05136088 0.08388087 0.050761048 -0.0077138585 -0.07809488 -0.08553711 0.05282172
0.0027548796 0.085294046 -0.13060535 -0.012651742 -0.07044743 -0.03681611 -0.036700256 0.0076343035
0.008363484 0.056693226 0.052090295 -0.027841404 -0.11557092 -0.096105024 -0.06644323 -0.085248165
-0.014899317 0.06510596 0.0036811791 0.06179489 0.07473105 -0.026154205 0.047399 -0.04087909
-0.071986094 0.09938985 -0.018820157 0.056981847 0.08317289 0.06807289 -0.11763538 -0.039482325
0.05326453 -0.06152019 -0.06341911 -0.0050227405 -0.07979436 0.14173912 -0.092139274 -0.022181353
-0.015983049 0.07777403 0.060382865 0.111290835 -0.056097593 0.04093031 -0.011123635 0.012316437
0.12809661 -0.1280341 -0.025121648 0.06896206 -0.07696534 0.101836875 0.005160354 -0.050508987
-0.047494985 0.0477094 -0.10015509 0.11768231 -0.12279071 -0.0228043 0.001414151 0.09568588
0.10030077 0.12466388 -0.09474639 0.06874499 -0.068934314 0.0016238115 0.08450684 0.1243052
0.0748613 0.008730679 -0.01957471 -0.008392457 0.1157172 -0.05988916 -0.015706766 0.010059996
-0.002089562 -0.1422242 -0.01694002 -0.111057594 -0.08895027 0.026071051 -0.10212448 0.12833412
0.09376501 -0.014626494 0.16158612 0.018400433 0.086482815 -0.04034036 -0.0016617053 0.034607407
0.05200715 0.061309643 -0.065484434 0.091032505 -0.0005652477 -0.049882725 -0.010626867 0.0846433
0.086579464 0.07611255 0.029168416 0.017197121 -0.062286045 -0.08800218 -0.034086604 -0.010364733
0.06331076 -0.035889506 -0.13541146 -0.045141745 -0.016016722 0.016870612 0.08105021 0.066206835
0.101735264 -0.05480971 -0.08323462 0.09807824 0.08593613 -0.03703225 0.05543666 0.028064264
-0.048450164 0.13482518 0.04963631 -0.113482036 0.113372914 -0.04267926 0.06262607 -0.15164664
00000000: 3ced cfbd 0f07 a43d 2551 9abd 3d24 a23b
00000010: 4762 0dbb b72c 66bd f28b 5dbd 9e9e f9bd
00000020: 873d 5dbd ceee e7bb 6b32 963d 4e44 10be
00000030: 8f4d 14be b0cb f9bd 04b5 4c3d 9045 c33c
00000040: 66bc 87bd c520 16be 1bba 8c3d 8e9b c23d
00000050: 5f65 133e c174 1abe 16d1 b13d d2c0 49bd
00000060: bf28 e4bd a1f8 98bd fbb8 5a3c 1956 e63d
00000070: 60a0 7abc e856 b6bc 5c59 08bd 64b7 a73d
00000080: b129 85bd 7683 293e 8400 af3d 2d9b 4c3a
00000090: ae16 99bd 876d 8abd 9e66 8f3d af54 0c3e
000000a0: eba6 253e 0ef4 02be 698b 01be 3c5e f43d
000000b0: 4668 563c 8bc4 c9bc 488e 373d c0ff 893d
000000c0: ee92 033e 5bfa 563c f4e4 983c 8a6b d8bd
000000d0: 59f8 02be 9b33 883d 7b4b f23d 285f 673d
000000e0: 1054 893d 2ce1 85bd 655d 96bd dd72 9abc
000000f0: 9dac 12bd 814c eb3d 24a9 5bbc bfff e1bc
00000100: 77ee 3c3d 8449 293d ad44 123d 327c 0bbe
00000110: 824b d4bc 5cb6 59bd ea35 05be 1120 8f3d
00000120: 8b8d c8bd 93ab cabd aec1 1ebe 8a1c b73d
00000130: 423e 0abe 8d13 b3bd 1088 b8bd 848c 3a3d
00000140: f9f2 d43d 6b62 b7bb b767 1d3e cde2 7c3d
00000150: e3d1 fe3c 8178 09be 8ae3 833d 8fa2 0c3e
00000160: e26f afbd acda 9cbd 7624 00bb 6124 943c
00000170: 7709 b1bb a402 bb3d b106 a93d ebf7 c1bd
00000180: a1f1 873d 8914 b7bd e7e6 b93b a9ff 163d
00000190: 38b9 433d 417c 85bc bb9c 143e 9552 823d
000001a0: ad60 743d 2760 75bd 7444 97bd 5196 c33d
000001b0: 9a50 213d 947b 3dbd 5a9f c03d 203c b03c
000001c0: ccb4 743c c95f 52bd bcc9 ab3d d1ea 4f3d
000001d0: 89c4 fcbb 35f0 9fbd 152e afbd 965b 583d
000001e0: 368b 343b a5ae ae3d 69bd 05be 4149 4fbc
000001f0: be46 90bd 7dcc 16bd 0253 16bd 2e29 fa3b
00000200: ff06 093c 2837 683d a25c 553d a813 e4bc
00000210: 72b0 ecbd b6d2 c4bd 6313 88bd 9796 aebd
00000220: 441c 74bc 4656 853d f03f 713b a31c 7d3d
00000230: 980c 993d 5841 d6bc 7425 423d d570 27bd
00000240: 726d 93bd e88c cb3d bb2c 9abc cc65 693d
00000250: 8c56 aa3d cd69 8b3d d1ea f0bd 38b8 21bd
00000260: e82b 5a3d 98fc 7bbd e1e1 81bd cd95 a4bb
00000270: 3a6b a3bd 0f24 113e 84b3 bcbd abb5 b5bc
00000280: e2ee 82bc fe47 9f3d 0654 773d 73ec e33d
00000290: 97c6 65bd 8aa6 273d e83f 36bc e2ca 493c
000002a0: c22b 033e 5f1b 03be eacb cdbc fb3b 8d3d
000002b0: 01a0 9dbd da8f d03d 3018 a93b 83e2 4ebd
000002c0: 1a8a 42bd ef6a 433d 1d1e cdbd 6c03 f13d
000002d0: b279 fbbd 15d0 babc 095b b93a f5f6 c33d
000002e0: 7d6a cd3d c74f ff3d 650a c2bd 2cca 8c3d
000002f0: 6f2d 8dbd 13d6 d43a ec11 ad3d ba93 fe3d
00000300: e250 993d 1f0b 0f3c 245b a0bc 8480 09bc
00000310: 24fd ec3d 564e 75bd 7aab 80bc aed2 243c
00000320: 08f1 08bb 38a3 11be ccc5 8abc 2a72 e3bd
00000330: 8f2b b6bd f592 d53c a426 d1bd 056a 033e
00000340: df07 c03d f6a3 6fbc d576 253e 81bc 963c
00000350: e71d b13d ef3b 25bd 94cd d9ba 7fc0 0d3d
00000360: 7305 553d d21f 7b3d b41c 86bd 406f ba3d
00000370: 222d 14ba d451 4cbd 501c 2ebc 7759 ad3d
00000380: 9350 b13d e6e0 9b3d 9af2 ee3c fae0 8c3c
00000390: a71f 7fbd 7d3a b4bd 659e 0bbd d7d0 29bc
000003a0: 12a9 813d e000 13bd 4da9 0abe 8de6 38bd
000003b0: 8035 83bc 3d34 8a3c a7fd a53d 7397 873d
000003c0: 945a d03d 2580 60bd ea76 aabd 3fdd c83d
000003d0: 48ff af3d 21af 17bd 8d11 633d 07e7 e53c
000003e0: ae73 46bd 9d0f 0a3e 724f 4b3d 4569 e8bd
000003f0: 0f30 e83d 73d0 2ebd 1942 803d 4249 1bbe

lstm.bias_ih_l1 f4 [256]
0.02236741 0.14809321 0.028653897 -0.1132711 0.0027283563 -0.10521487 -0.06751055 0.031398352
-0.095000125 0.110487156 0.14176093 0.06691753 -0.0777825 0.048849665 0.077815905 -0.028201576
0.10061647 0.07474604 -0.07537305 0.020390466 -0.02801335 0.020988649 0.06515262 0.063680224
0.02316248 -0.022042617 0.10443892 -0.07960043 -0.0034876 0.011993323 0.055237245 -0.060157858
-0.05598294 0.1184723 -0.012950106 0.08132188 -0.00097182393 -0.09173137 0.13698688 -0.08696568
-0.048067607 0.06986788 0.10688091 0.110354155 0.04563374 0.005364177 0.018952271 0.09967032
0.11391602 0.13224217 0.1375741 0.08271207 -0.0518434 0.014447924 0.12730686 0.04380261
0.03652179 -0.043123484 0.011183977 0.07510296 0.10252307 0.105694905 -0.03936117 -0.032711644
0.11863071 0.04196548 0.134134 0.11149766 -0.017882012 0.056353193 -0.070445746 -0.028456306
0.048926834 0.08587826 0.03285582 -0.06042738 -0.053198714 -0.07703182 -0.09806256 -0.11769583
-0.018192586 -0.016116314 -0.034781218 0.0014181952 0.11363798 0.022839949 -0.07037615 0.103253014
0.12434706 -0.016264295 -0.0840062 0.046753135 -0.04901684 0.13103206 -0.08774394 -0.017288536
0.10516239 0.06367233 0.11658425 0.06126972 -0.07449069 0.08795535 -0.10259218 0.004460745
0.10266556 -0.052529514 -0.0774526 0.06692852 0.055419035 0.08272353 -0.050440624 -0.06883517
0.114745654 -0.016929436 0.029967967 0.05612712 -0.030007394 -0.016146882 0.08836365 0.028657624
-0.053611927 0.05010035 -0.014260797 0.08430487 -0.09507012 -0.042511318 0.023558598 -0.023173846
-0.0016289949 -0.08238496 -0.081725895 -0.105309576 -0.11431198 -0.12320973 -0.031312656 -0.108476505
0.042937294 0.0035363028 -0.082108684 0.03951 0.0005523795 -0.0020927966 0.0445778 0.03683285
0.011330036 0.022844484 -0.08688115 0.015906665 -0.08613777 0.0504395 0.05665007 0.018318165
-0.053642172 0.09252475 -0.10258058 0.05078439 -0.012283332 0.06987964 -0.03225404 -0.025767611
0.124344885 0.10689484 -0.042713936 0.0020556778 0.08199465 -0.07903728 -0.09017098 -0.021835433
0.105562605 -0.08565133 -0.053947296 0.049142588 -0.018590657 -0.071450576 0.03188411 0.068014316
0.07970653 0.122197725 0.024664713 0.064862885 0.07579506 0.10719692 0.00091490813 0.054628585
-0.044849917 0.07398134 -0.07167981 -0.11124578 0.07502336 -0.038465217 -0.093389615 0.034339227
-0.0006341421 -0.06263667 -0.02419181 0.0028040148 -0.012770064 -0.0840398 0.07429015 -0.03298497
-0.058981527 0.021311723 -0.08267388 0.14086851 -0.022397928 -0.069250226 0.025514463 -0.048092157
-0.071920864 0.15180112 -0.09787081 0.019069182 -0.09769422 0.023427267 0.16415204 0.08663977
0.049303904 0.09496931 0.02381461 0.14713638 0.07637733 0.050813362 0.03822015 -0.12198554
-0.016585661 -0.001282091 -0.007958912 -0.095937215 0.014470353 0.09779107 -0.048209973 0.013904002
0.047844 -0.03654317 -0.066698596 0.054423638 -0.019974481 0.14497796 0.023771018 -0.016184766
0.05822147 -0.07201587 -0.08412267 0.0048419917 0.13191754 -0.019131545 -0.017494468 -0.0041853837
0.047722816 0.098731674 0.10293966 0.018461132 -0.038497306 0.093863815 0.07974144 -0.027182583
00000000: dc3b b73c bfa5 173e 94bb ea3c aefa e7bd
00000010: 39ce 323b e57a d7bd f942 8abd 8f9b 003d
00000020: 6d8f c2bd 1747 e23d c729 113e 0f0c 893d
00000030: 6e4c 9fbd 9616 483d f25d 9f3d fe06 e7bc
00000040: 0210 ce3d 7414 993d 305d 9abd e809 a73c
00000050: 417c e5bc 63f0 ab3c bd6e 853d c76a 823d
00000060: 3ebf bd3c b892 b4bc 13e4 d53d 8d05 a3bd
00000070: 3890 64bb a57f 443c 7340 623d 1668 76bd
00000080: 5e4e 65bd 9ba1 f23d ae2c 54bc 168c a63d
00000090: 00c2 7eba a8dd bbbd 4a46 0c3e 101b b2bd
000000a0: 8ae2 44bd e416 8f3d 61e4 da3d 5c01 e23d
000000b0: 72ea 3a3d fac5 af3b cb41 9b3c f41f cc3d
000000c0: cd4c e93d 7e6a 073e 3ae0 0c3e f264 a93d
000000d0: bf59 54bd fcb6 6c3c bb5c 023e 5e6a 333d
000000e0: df97 153d 40a2 30bd 003d 373c 95cf 993d
000000f0: 9ef7 d13d 9276 d83d 2e39 21bd a5fc 05bd
00000100: a8f4 f23d ffe3 2b3d 6c5a 093e e358 e43d
00000110: 4c7d 92bc 9bd2 663d dc45 90bd 331d e9bc
00000120: 8167 483d f1e0 af3d d393 063d b382 77bd
00000130: e5e6 59bd dcc2 9dbd 06d5 c8bd 830a f1bd
00000140: 9e08 95bc 5c06 84bc c076 0ebd bce2 b93a
00000150: 07bb e83d d81a bb3c 5f21 90bd 5176 d33d
00000160: aca9 fe3d b33c 85bc 710b acbd 3780 3f3d
00000170: e2c5 48bd 452d 063e 18b3 b3bd b0a0 8dbc
00000180: 615f d73d a366 823d b9c3 ee3d f5f5 7a3d
00000190: 938e 98bd ef21 b43d d91b d2bd 712b 923b
000001a0: 5242 d23d 3029 57bd 789f 9ebd d211 893d
000001b0: 12ff 623d f46a a93d d49a 4ebd 74f9 8cbd
000001c0: c5ff ea3d 9aaf 8abc 627f f53c 8de5 653d
000001d0: 11d2 f5bc 7746 84bc 00f8 b43d 65c3 ea3c
000001e0: 2e98 5bbd 0636 4d3d 1ea6 69bc 08a8 ac3d
000001f0: 20b4 c2bd 5920 2ebd f6fd c03c 14d7 bdbc
00000200: 0084 d5ba 72b9 a8bd e85f a7bd 8cac d7bd
00000210: 661c eabd 6255 fcbd b341 00bd ee28 debd
00000220: 04df 2f3d 51c1 673b 9928 a8bd 3dd5 213d
00000230: 90cd 103a 4d27 09bb 3697 363d 0bde 163d
00000240: 9ea1 393c 5b24 bb3c bfee b1bd b24e 823c
00000250: 0069 b0bd a699 4e3d e709 683d fa0f 963c
00000260: e5b7 5bbd 9e7d bd3d c415 d2bd 4b03 503d
00000270: 0740 49bc 0f1d 8f3d d01c 04bd 9916 d3bc
00000280: 88a8 fe3d afeb da3d cff4 2ebd 8db8 063b
00000290: d0ec a73d 4cde a1bd 90ab b8bd 39e0 b2bc
000002a0: 3531 d83d f769 afbd d7f7 5cbd bd49 493d
000002b0: 6f4b 98bc ae54 92bd ea98 023d 174b 8b3d
000002c0: 2d3d a33d cd42 fa3d a70d ca3c d5d6 843d
000002d0: 713a 9b3d 0f8a db3d 72d6 6f3a 39c2 5f3d
000002e0: 8cb4 37bd 8783 973d ddcc 92bd d4d4 e3bd
000002f0: d9a5 993d b48d 1dbd 0e43 bfbd 4aa7 0c3d
00000300: 8e3c 26ba a847 80bd e72d c6bc 90c3 373b
00000310: 8839 51bc 0f1d acbd 6f25 983d 3f1b 07bd
00000320: 9d96 71bd ec95 ae3c ec50 a9bd d63f 103e
00000330: dc7b b7bc 10d3 8dbd b503 d13c 48fc 44bd
00000340: 3f4b 93bd c171 1b3e 7e70 c8bd f936 9c3c
00000350: e813 c8bd 8aea bf3c 7917 283e 3170 b13d
00000360: e4f2 493d 457f c23d db16 c33c ebaa 163e
00000370: b86b 9c3d ac21 503d bb8c 1c3d 8ed3 f9bd
00000380: a7de 87bc d60b a8ba 1966 02bc bb7a c4bd
00000390: 0f15 6d3c af46 c83d d277 45bd 9ccd 633c
000003a0: 12f8 433d 4bae 15bd 4699 88bd 52eb 5e3d
000003b0: 86a1 a3bc 1a75 143e 70bb c23c ea95 84bc
000003c0: a379 6e3d 0e7d 93bd 8248 acbd 92a9 9e3b
000003d0: 6415 073e c2b9 9cbc 8f50 8fbc 8b25 89bb
000003e0: 0079 433d d533 ca3d 07d2 d23d cd3b 973c
000003f0: 5aaf 1dbd ac3b c03d 7b4f a33d 02ae debc

lstm.bias_hh_l1 f4 [256]
0.055561747 0.12824246 -0.089951344 -0.013299329 0.08652281 0.018327834 0.026506582 0.10445925
0.029728394 -0.030858539 -0.043342862 0.035373703 0.014657981 0.06285615 0.023556216 0.105138265
0.002214569 0.11100946 0.09810352 0.01721753 0.13247928 -0.025712838 0.05314004 -0.07036787
0.048567843 -0.013502663 -0.055698175 -0.0038050236 0.083920114 0.13456838 0.009314217 0.086812325
-0.04102045 0.00840722 0.07149944 -0.02435965 0.088621795 0.07844219 -0.0668937 -0.05298597
-0.017763454 -0.0064562145 0.13542716 0.04474352 0.0059211655 0.01895204 -0.050868623 -0.058938447
-0.082613856 -0.053859405 -0.0021339552 -0.022147946 -0.0835464 0.14094484 0.015394112 -0.070763364
-0.08173525 -0.10526391 0.12264465 0.07305947 0.12509082 0.16263568 -0.07899629 0.10805755
0.09179218 -0.11670775 0.032556895 -0.11242503 0.11669996 0.044554487 -0.08606496 0.07841258
-0.12842166 -0.011884052 0.089747034 0.04559948 0.06494794 0.125555 0.10639912 0.05594089
0.057620373 -0.009129659 -0.06152246 0.055017773 0.010334016 -0.08125005 0.0039664484 0.032583874
0.12869143 -0.049492966 0.09859964 -0.10946533 -0.0017667228 -0.07418679 -0.07794992 0.06649886
-0.07793559 -0.0064242077 -0.08648809 -0.012967746 0.060193386 -0.037626315 0.055357046 -0.10480553
0.082146294 0.01040244 0.14508064 0.14437434 -0.0193859 -0.034021296 0.1302316 0.072150625
0.06696805 0.12798402 0.09000273 0.06250659 -0.06768279 -0.087599136 0.038114283 0.014144673
-0.035379414 -0.017231755 -0.096838966 -0.066102594 0.057106376 -0.04903339 -0.08034659 0.11750067
0.07577098 0.023859177 0.112362295 -0.11314045 0.0063531036 -0.13344738 0.0448584 -0.05918224
-0.006611231 -0.03331925 -0.1241022 -0.11763424 -0.016502123 -0.081483655 -0.09444707 0.016044147
0.03870038 0.06718632 0.030821133 0.042681005 0.08005925 -0.1326263 -0.03178964 0.077865124
-0.09594672 0.09419731 0.038850076 -0.09029006 0.09609499 0.050807588 0.13213037 -0.100641415
0.07924515 0.12858537 -0.03758729 -0.029207474 0.061185382 0.012150086 0.012649 -0.09224047
0.0019710208 -0.09355077 0.08928902 -0.06635624 0.016898766 -0.109987915 -0.06975843 -0.110452995
-0.08445475 -0.10530974 0.043113135 -0.03037694 -0.059085112 0.057481367 0.0572193 -0.08897802
0.11319915 -0.065157175 -0.13226269 -0.018890312 0.09926736 0.025416974 0.06782046 0.07947464
0.053916603 0.055779897 0.110411346 -0.0010349458 0.015699698 0.12562577 -0.081853576 -0.014381644
-0.055807874 0.05431942 0.14829358 -0.0015368187 0.12619138 -0.01706443 0.089843325 -0.12287672
0.13246128 0.13916601 -0.043154676 -0.007631451 0.119969025 0.1120963 0.076435305 -0.0043777716
0.115085945 0.077045195 -0.029961094 -0.045823812 0.086407885 0.026216565 0.10214556 0.07330983
-0.051965144 -0.042491913 0.12289216 0.077611215 -0.019330995 -0.06938227 0.009606799 -0.027681276
-0.010699226 0.038737386 -0.0387782 -0.09074376 0.025545826 -0.02319127 -0.024861027 0.12424732
0.0020098968 0.12515967 -0.015949897 0.13142686 0.009930204 -0.058186587 -0.055974986 0.12558898
0.031094542 0.14582182 0.019087698 0.102896765 0.07179054 -0.015737774 0.1256573 0.11179706
00000000: b794 633d fe51 033e 6938 b8bd 6ee5 59bc
00000010: df32 b13d 4124 963c 5524 d93c bbee d53d
00000020: f688 f33c 0ccb fcbc 4988 31bd 04e4 103d
00000030: 0728 703c baba 803d f7f8 c03c bb52 d73d
00000040: 4d22 113b ee58 e33d 80ea c83d c70b 8d3c
00000050: a6a8 073e bba3 d2bc 5fa9 593d 081d 90bd
00000060: 13ef 463d 463a 5dbc c523 64bd b45d 79bb
00000070: 4fde ab3d 4bcc 093e a89a 183c a9ca b13d
00000080: 0f05 28bd 70be 093c 4c6e 923d e48d c7bc
00000090: 587f b53d 4da6 a03d 90ff 88bd d107 59bd
000000a0: aa84 91bc a78e d3bb 6bad 0a3e fb44 373d
000000b0: 5606 c23b 4f41 9b3c 9e5b 50bd 7169 71bd
000000c0: 7431 a9bd ae9b 5cbd d4d9 0bbb 9c6f b5bc
000000d0: 601a abbd d853 103e 9637 7c3c 62ec 90bd
000000e0: d064 a7bd 9b94 d7bd 1e2d fb3d 34a0 953d
000000f0: cf17 003e f889 263e cfc8 a1bd 474d dd3d
00000100: 8afd bb3d 7904 efbd 615a 053d 183f e6bd
00000110: 6300 ef3d c47e 363d d342 b0bd c696 a03d
00000120: f880 03be 54b5 42bc 4bcd b73d 85c6 3a3d
00000130: 6d03 853d 7d91 003e c8e7 d93d 4622 653d
00000140: 5703 6c3d 9194 15bc fafe 7bbd 515a 613d
00000150: 0150 293c 6d66 a6bd fbf8 813b ab76 053d
00000160: b0c7 033e 23b9 4abd 9cee c93d 5c2f e0bd
00000170: 6191 e7ba 3eef 97bd 35a4 9fbd 8e30 883d
00000180: b29c 9fbd 2982 d2bb ab20 b1bd ab76 54bc
00000190: 578d 763d 0d1e 1abd 12be 623d 48a4 d6bd
000001a0: 513c a83d ff6e 2a3c 0590 143e ded6 133e
000001b0: 2ecf 9ebc ea59 0bbd 6f5b 053e b5c3 933d
000001c0: 8c26 893d 3e0e 033e 5a53 b83d 7403 803d
000001d0: 469d 8abd 2d67 b3bd b91d 1c3d 0fbf 673c
000001e0: 01ea 10bd 9c29 8dbc 8253 c6bd cc60 87bd
000001f0: 60e8 693d 3cd7 48bd c18c a4bd 31a4 f03d
00000200: d12d 9b3d 5274 c33c 341e e63d 2eb6 e7bd
00000210: b22d d03b 6ea6 08be 71bd 373d 1469 72bd
00000220: 06a3 d8bb c479 08bd 4b29 febd 38ea f0bd
00000230: 762f 87bc e7e0 a6bd 776d c1bd 046f 833c
00000240: 4a84 1e3d fb98 893d 9a7c fc3c 47d2 2e3d
00000250: 1bf6 a33d 30cf 07be db35 02bd c077 9f3d
00000260: b77f c4bd 85ea c03d 4221 1f3d ffe9 b8bd
00000270: 73cd c43d 9e1b 503d 2f4d 073e 161d cebd
00000280: 484b a23d e2ab 033e 21f5 19bd 8344 efbc
00000290: 869d 7a3d 2811 473c c03d 4f3c 92e8 bcbd
000002a0: 3e2c 013b 8c97 bfbd 29dd b63d c8e5 87bd
000002b0: 486f 8a3c 5841 e1bd 82dd 8ebd 2e35 e2bd
000002c0: 9df6 acbd a2ac d7bd 6697 303d 0fd9 f8bc
000002d0: 3b03 72bd 9571 6b3d c95e 6a3d 1c3a b6bd
000002e0: f5d4 e73d 2071 85bd df6f 07be dbbf 9abc
000002f0: b04c cb3d 4237 d03c 74e5 8a3d 9ac3 a23d
00000300: a8d7 5c3d 7679 643d 581f e23d 05a7 87ba
00000310: a79c 803c 0ba4 003e d9a2 a7bd fda0 6bbc
00000320: cc96 64bd 0a7e 5e3d 46da 173e 146f c9ba
00000330: 5038 013e b4ca 8bbc c7ff b73d caa6 fbbd
00000340: eea3 073e 8981 0e3e f5c2 30bd 4011 fabb
00000350: 52b2 f53d bf92 e53d 1d8a 9c3d 6973 8fbb
00000360: 2eb2 eb3d dfc9 9d3d f870 f5bc c0b1 3bbd
00000370: 9ef6 b03d 1fc4 d63c b131 d13d 7723 963d
00000380: 67d9 54bd 000c 2ebd e3ae fb3d a1f2 9e3d
00000390: 095c 9ebc 4b18 8ebd d665 1d3c d8c3 e2bc
000003a0: ce4b 2fbc 18ab 1e3d e4d5 1ebd ddd7 b9bd
000003b0: 7b45 d13c 9efb bdbc 5aa9 cbbc 6175 fe3d
000003c0: 79b8 033b db29 003e 5ca9 82bc c394 063e
000003d0: 4bb2 223c 0f55 6ebd 0746 65bd 669a 003e
000003e0: fbb9 fe3c 5152 153e ce5d 9c3c 8abb d23d
000003f0: eb06 933d 81ec 80bc 4fac 003e dbf5 e43d
